<?xml version="1.0"?>
<net name="Model3" version="11">
	<layers>
		<layer id="10" name="x" type="Parameter" version="opset1">
			<data shape="1,?" element_type="i64" />
			<output>
				<port id="0" precision="I64" names="phones">
					<dim>1</dim>
					<dim>-1</dim>
				</port>
			</output>
		</layer>
		<layer id="9" name="x_lengths" type="Parameter" version="opset1">
			<data shape="1" element_type="i64" />
			<output>
				<port id="0" precision="I64" names="phones_length">
					<dim>1</dim>
				</port>
			</output>
		</layer>
		<layer id="8" name="sid" type="Parameter" version="opset1">
			<data shape="1" element_type="i64" />
			<output>
				<port id="0" precision="I64" names="speakers">
					<dim>1</dim>
				</port>
			</output>
		</layer>
		<layer id="7" name="tone" type="Parameter" version="opset1">
			<data shape="1,?" element_type="i64" />
			<output>
				<port id="0" precision="I64" names="tones">
					<dim>1</dim>
					<dim>-1</dim>
				</port>
			</output>
		</layer>
		<layer id="6" name="language" type="Parameter" version="opset1">
			<data shape="1,?" element_type="i64" />
			<output>
				<port id="0" precision="I64" names="lang_ids">
					<dim>1</dim>
					<dim>-1</dim>
				</port>
			</output>
		</layer>
		<layer id="5" name="bert" type="Parameter" version="opset1">
			<data shape="1,1024,?" element_type="f32" />
			<output>
				<port id="0" precision="FP32" names="bert">
					<dim>1</dim>
					<dim>1024</dim>
					<dim>-1</dim>
				</port>
			</output>
		</layer>
		<layer id="4" name="ja_bert" type="Parameter" version="opset1">
			<data shape="1,768,?" element_type="f32" />
			<output>
				<port id="0" precision="FP32" names="ja_bert">
					<dim>1</dim>
					<dim>768</dim>
					<dim>-1</dim>
				</port>
			</output>
		</layer>
		<layer id="3" name="noise_scale" type="Parameter" version="opset1">
			<data shape="1" element_type="f32" />
			<output>
				<port id="0" precision="FP32" names="noise_scale">
					<dim>1</dim>
				</port>
			</output>
		</layer>
		<layer id="2" name="length_scale" type="Parameter" version="opset1">
			<data shape="1" element_type="f32" />
			<output>
				<port id="0" precision="FP32" names="length_scale">
					<dim>1</dim>
				</port>
			</output>
		</layer>
		<layer id="1" name="noise_scale_w" type="Parameter" version="opset1">
			<data shape="1" element_type="f32" />
			<output>
				<port id="0" precision="FP32" names="noise_scale_w">
					<dim>1</dim>
				</port>
			</output>
		</layer>
		<layer id="0" name="sdp_ratio" type="Parameter" version="opset1">
			<data shape="1" element_type="f32" />
			<output>
				<port id="0" precision="FP32" names="sdp_ratio">
					<dim>1</dim>
				</port>
			</output>
		</layer>
		<layer id="11" name="__module.model/aten::arange/Constant" type="Const" version="opset1">
			<data element_type="i32" shape="" offset="0" size="4" />
			<output>
				<port id="0" precision="I32" />
			</output>
		</layer>
		<layer id="12" name="__module.model.enc_p/aten::arange/Constant" type="Const" version="opset1">
			<data element_type="i32" shape="" offset="0" size="4" />
			<output>
				<port id="0" precision="I32" />
			</output>
		</layer>
		<layer id="13" name="Constant_4290531" type="Const" version="opset1">
			<data element_type="i8" shape="112, 192" offset="4" size="21504" />
			<output>
				<port id="0" precision="I8">
					<dim>112</dim>
					<dim>192</dim>
				</port>
			</output>
		</layer>
		<layer id="14" name="Convert_4290532" type="Convert" version="opset1">
			<data destination_type="f32" />
			<input>
				<port id="0" precision="I8">
					<dim>112</dim>
					<dim>192</dim>
				</port>
			</input>
			<output>
				<port id="1" precision="FP32">
					<dim>112</dim>
					<dim>192</dim>
				</port>
			</output>
		</layer>
		<layer id="15" name="Constant_4290533" type="Const" version="opset1">
			<data element_type="f32" shape="112, 1" offset="21508" size="448" />
			<output>
				<port id="0" precision="FP32">
					<dim>112</dim>
					<dim>1</dim>
				</port>
			</output>
		</layer>
		<layer id="16" name="__module.model.enc_p.emb/aten::embedding/Gather/fq_weights_0" type="Multiply" version="opset1">
			<data auto_broadcast="numpy" />
			<input>
				<port id="0" precision="FP32">
					<dim>112</dim>
					<dim>192</dim>
				</port>
				<port id="1" precision="FP32">
					<dim>112</dim>
					<dim>1</dim>
				</port>
			</input>
			<output>
				<port id="2" precision="FP32">
					<dim>112</dim>
					<dim>192</dim>
				</port>
			</output>
		</layer>
		<layer id="17" name="__module.model.enc_p.emb/aten::embedding/Convert" type="Convert" version="opset1">
			<data destination_type="i32" />
			<input>
				<port id="0" precision="I64">
					<dim>1</dim>
					<dim>-1</dim>
				</port>
			</input>
			<output>
				<port id="1" precision="I32">
					<dim>1</dim>
					<dim>-1</dim>
				</port>
			</output>
		</layer>
		<layer id="18" name="__module.model.enc_p.emb/aten::embedding/Constant" type="Const" version="opset1">
			<data element_type="i32" shape="" offset="0" size="4" />
			<output>
				<port id="0" precision="I32" />
			</output>
		</layer>
		<layer id="19" name="__module.model.enc_p.emb/aten::embedding/Gather" type="Gather" version="opset8">
			<data batch_dims="0" />
			<input>
				<port id="0" precision="FP32">
					<dim>112</dim>
					<dim>192</dim>
				</port>
				<port id="1" precision="I32">
					<dim>1</dim>
					<dim>-1</dim>
				</port>
				<port id="2" precision="I32" />
			</input>
			<output>
				<port id="3" precision="FP32" names="104">
					<dim>1</dim>
					<dim>-1</dim>
					<dim>192</dim>
				</port>
			</output>
		</layer>
		<layer id="20" name="Constant_4290535" type="Const" version="opset1">
			<data element_type="i8" shape="11, 192" offset="21956" size="2112" />
			<output>
				<port id="0" precision="I8">
					<dim>11</dim>
					<dim>192</dim>
				</port>
			</output>
		</layer>
		<layer id="21" name="Convert_4290536" type="Convert" version="opset1">
			<data destination_type="f32" />
			<input>
				<port id="0" precision="I8">
					<dim>11</dim>
					<dim>192</dim>
				</port>
			</input>
			<output>
				<port id="1" precision="FP32">
					<dim>11</dim>
					<dim>192</dim>
				</port>
			</output>
		</layer>
		<layer id="22" name="Constant_4290537" type="Const" version="opset1">
			<data element_type="f32" shape="11, 1" offset="24068" size="44" />
			<output>
				<port id="0" precision="FP32">
					<dim>11</dim>
					<dim>1</dim>
				</port>
			</output>
		</layer>
		<layer id="23" name="__module.model.enc_p.tone_emb/aten::embedding/Gather/fq_weights_0" type="Multiply" version="opset1">
			<data auto_broadcast="numpy" />
			<input>
				<port id="0" precision="FP32">
					<dim>11</dim>
					<dim>192</dim>
				</port>
				<port id="1" precision="FP32">
					<dim>11</dim>
					<dim>1</dim>
				</port>
			</input>
			<output>
				<port id="2" precision="FP32">
					<dim>11</dim>
					<dim>192</dim>
				</port>
			</output>
		</layer>
		<layer id="24" name="__module.model.enc_p.tone_emb/aten::embedding/Convert" type="Convert" version="opset1">
			<data destination_type="i32" />
			<input>
				<port id="0" precision="I64">
					<dim>1</dim>
					<dim>-1</dim>
				</port>
			</input>
			<output>
				<port id="1" precision="I32">
					<dim>1</dim>
					<dim>-1</dim>
				</port>
			</output>
		</layer>
		<layer id="25" name="__module.model.enc_p.tone_emb/aten::embedding/Constant" type="Const" version="opset1">
			<data element_type="i32" shape="" offset="0" size="4" />
			<output>
				<port id="0" precision="I32" />
			</output>
		</layer>
		<layer id="26" name="__module.model.enc_p.tone_emb/aten::embedding/Gather" type="Gather" version="opset8">
			<data batch_dims="0" />
			<input>
				<port id="0" precision="FP32">
					<dim>11</dim>
					<dim>192</dim>
				</port>
				<port id="1" precision="I32">
					<dim>1</dim>
					<dim>-1</dim>
				</port>
				<port id="2" precision="I32" />
			</input>
			<output>
				<port id="3" precision="FP32" names="106">
					<dim>1</dim>
					<dim>-1</dim>
					<dim>192</dim>
				</port>
			</output>
		</layer>
		<layer id="27" name="__module.model.enc_p/aten::add/Add" type="Add" version="opset1">
			<data auto_broadcast="numpy" />
			<input>
				<port id="0" precision="FP32">
					<dim>1</dim>
					<dim>-1</dim>
					<dim>192</dim>
				</port>
				<port id="1" precision="FP32">
					<dim>1</dim>
					<dim>-1</dim>
					<dim>192</dim>
				</port>
			</input>
			<output>
				<port id="2" precision="FP32" names="107">
					<dim>1</dim>
					<dim>-1</dim>
					<dim>192</dim>
				</port>
			</output>
		</layer>
		<layer id="28" name="Constant_4290539" type="Const" version="opset1">
			<data element_type="i8" shape="4, 192" offset="24112" size="768" />
			<output>
				<port id="0" precision="I8">
					<dim>4</dim>
					<dim>192</dim>
				</port>
			</output>
		</layer>
		<layer id="29" name="Convert_4290540" type="Convert" version="opset1">
			<data destination_type="f32" />
			<input>
				<port id="0" precision="I8">
					<dim>4</dim>
					<dim>192</dim>
				</port>
			</input>
			<output>
				<port id="1" precision="FP32">
					<dim>4</dim>
					<dim>192</dim>
				</port>
			</output>
		</layer>
		<layer id="30" name="Constant_4290541" type="Const" version="opset1">
			<data element_type="f32" shape="4, 1" offset="24880" size="16" />
			<output>
				<port id="0" precision="FP32">
					<dim>4</dim>
					<dim>1</dim>
				</port>
			</output>
		</layer>
		<layer id="31" name="__module.model.enc_p.language_emb/aten::embedding/Gather/fq_weights_0" type="Multiply" version="opset1">
			<data auto_broadcast="numpy" />
			<input>
				<port id="0" precision="FP32">
					<dim>4</dim>
					<dim>192</dim>
				</port>
				<port id="1" precision="FP32">
					<dim>4</dim>
					<dim>1</dim>
				</port>
			</input>
			<output>
				<port id="2" precision="FP32">
					<dim>4</dim>
					<dim>192</dim>
				</port>
			</output>
		</layer>
		<layer id="32" name="__module.model.enc_p.language_emb/aten::embedding/Convert" type="Convert" version="opset1">
			<data destination_type="i32" />
			<input>
				<port id="0" precision="I64">
					<dim>1</dim>
					<dim>-1</dim>
				</port>
			</input>
			<output>
				<port id="1" precision="I32">
					<dim>1</dim>
					<dim>-1</dim>
				</port>
			</output>
		</layer>
		<layer id="33" name="__module.model.enc_p.language_emb/aten::embedding/Constant" type="Const" version="opset1">
			<data element_type="i32" shape="" offset="0" size="4" />
			<output>
				<port id="0" precision="I32" />
			</output>
		</layer>
		<layer id="34" name="__module.model.enc_p.language_emb/aten::embedding/Gather" type="Gather" version="opset8">
			<data batch_dims="0" />
			<input>
				<port id="0" precision="FP32">
					<dim>4</dim>
					<dim>192</dim>
				</port>
				<port id="1" precision="I32">
					<dim>1</dim>
					<dim>-1</dim>
				</port>
				<port id="2" precision="I32" />
			</input>
			<output>
				<port id="3" precision="FP32" names="109">
					<dim>1</dim>
					<dim>-1</dim>
					<dim>192</dim>
				</port>
			</output>
		</layer>
		<layer id="35" name="__module.model.enc_p/aten::add/Add_1" type="Add" version="opset1">
			<data auto_broadcast="numpy" />
			<input>
				<port id="0" precision="FP32">
					<dim>1</dim>
					<dim>-1</dim>
					<dim>192</dim>
				</port>
				<port id="1" precision="FP32">
					<dim>1</dim>
					<dim>-1</dim>
					<dim>192</dim>
				</port>
			</input>
			<output>
				<port id="2" precision="FP32" names="110">
					<dim>1</dim>
					<dim>-1</dim>
					<dim>192</dim>
				</port>
			</output>
		</layer>
		<layer id="36" name="bert/fq_output_0/input_low" type="Const" version="opset1">
			<data element_type="f32" shape="" offset="24896" size="4" />
			<output>
				<port id="0" precision="FP32" />
			</output>
		</layer>
		<layer id="37" name="bert/fq_output_0/input_high" type="Const" version="opset1">
			<data element_type="f32" shape="" offset="24900" size="4" />
			<output>
				<port id="0" precision="FP32" />
			</output>
		</layer>
		<layer id="38" name="bert/fq_output_0/output_low" type="Const" version="opset1">
			<data element_type="f32" shape="" offset="24896" size="4" />
			<output>
				<port id="0" precision="FP32" />
			</output>
		</layer>
		<layer id="39" name="bert/fq_output_0/output_high" type="Const" version="opset1">
			<data element_type="f32" shape="" offset="24900" size="4" />
			<output>
				<port id="0" precision="FP32" />
			</output>
		</layer>
		<layer id="40" name="bert/fq_output_0" type="FakeQuantize" version="opset1">
			<data levels="256" auto_broadcast="numpy" />
			<input>
				<port id="0" precision="FP32">
					<dim>1</dim>
					<dim>1024</dim>
					<dim>-1</dim>
				</port>
				<port id="1" precision="FP32" />
				<port id="2" precision="FP32" />
				<port id="3" precision="FP32" />
				<port id="4" precision="FP32" />
			</input>
			<output>
				<port id="5" precision="FP32">
					<dim>1</dim>
					<dim>1024</dim>
					<dim>-1</dim>
				</port>
			</output>
		</layer>
		<layer id="41" name="Constant_4290543" type="Const" version="opset1">
			<data element_type="i8" shape="192, 1024, 1" offset="24904" size="196608" />
			<output>
				<port id="0" precision="I8">
					<dim>192</dim>
					<dim>1024</dim>
					<dim>1</dim>
				</port>
			</output>
		</layer>
		<layer id="42" name="Convert_4290544" type="Convert" version="opset1">
			<data destination_type="f32" />
			<input>
				<port id="0" precision="I8">
					<dim>192</dim>
					<dim>1024</dim>
					<dim>1</dim>
				</port>
			</input>
			<output>
				<port id="1" precision="FP32">
					<dim>192</dim>
					<dim>1024</dim>
					<dim>1</dim>
				</port>
			</output>
		</layer>
		<layer id="43" name="Constant_4290545" type="Const" version="opset1">
			<data element_type="f32" shape="192, 1, 1" offset="221512" size="768" />
			<output>
				<port id="0" precision="FP32">
					<dim>192</dim>
					<dim>1</dim>
					<dim>1</dim>
				</port>
			</output>
		</layer>
		<layer id="44" name="__module.model.enc_p.bert_proj/aten::_convolution/Convolution/fq_weights_1" type="Multiply" version="opset1">
			<data auto_broadcast="numpy" />
			<input>
				<port id="0" precision="FP32">
					<dim>192</dim>
					<dim>1024</dim>
					<dim>1</dim>
				</port>
				<port id="1" precision="FP32">
					<dim>192</dim>
					<dim>1</dim>
					<dim>1</dim>
				</port>
			</input>
			<output>
				<port id="2" precision="FP32">
					<dim>192</dim>
					<dim>1024</dim>
					<dim>1</dim>
				</port>
			</output>
		</layer>
		<layer id="45" name="__module.model.enc_p.bert_proj/aten::_convolution/Convolution" type="Convolution" version="opset1">
			<data strides="1" dilations="1" pads_begin="0" pads_end="0" auto_pad="explicit" />
			<input>
				<port id="0" precision="FP32">
					<dim>1</dim>
					<dim>1024</dim>
					<dim>-1</dim>
				</port>
				<port id="1" precision="FP32">
					<dim>192</dim>
					<dim>1024</dim>
					<dim>1</dim>
				</port>
			</input>
			<output>
				<port id="2" precision="FP32">
					<dim>1</dim>
					<dim>192</dim>
					<dim>-1</dim>
				</port>
			</output>
		</layer>
		<layer id="46" name="__module.model.enc_p.bert_proj/aten::_convolution/Reshape" type="Const" version="opset1">
			<data element_type="f32" shape="1, 192, 1" offset="222280" size="768" />
			<output>
				<port id="0" precision="FP32">
					<dim>1</dim>
					<dim>192</dim>
					<dim>1</dim>
				</port>
			</output>
		</layer>
		<layer id="47" name="__module.model.enc_p.bert_proj/aten::_convolution/Add" type="Add" version="opset1">
			<data auto_broadcast="numpy" />
			<input>
				<port id="0" precision="FP32">
					<dim>1</dim>
					<dim>192</dim>
					<dim>-1</dim>
				</port>
				<port id="1" precision="FP32">
					<dim>1</dim>
					<dim>192</dim>
					<dim>1</dim>
				</port>
			</input>
			<output>
				<port id="2" precision="FP32" names="93">
					<dim>1</dim>
					<dim>192</dim>
					<dim>-1</dim>
				</port>
			</output>
		</layer>
		<layer id="48" name="__module.model.enc_p/aten::transpose/ScatterElementsUpdate" type="Const" version="opset1">
			<data element_type="i32" shape="3" offset="223048" size="12" />
			<output>
				<port id="0" precision="I32">
					<dim>3</dim>
				</port>
			</output>
		</layer>
		<layer id="49" name="__module.model.enc_p/aten::transpose/Transpose" type="Transpose" version="opset1">
			<input>
				<port id="0" precision="FP32">
					<dim>1</dim>
					<dim>192</dim>
					<dim>-1</dim>
				</port>
				<port id="1" precision="I32">
					<dim>3</dim>
				</port>
			</input>
			<output>
				<port id="2" precision="FP32" names="94,bert_emb">
					<dim>1</dim>
					<dim>-1</dim>
					<dim>192</dim>
				</port>
			</output>
		</layer>
		<layer id="50" name="__module.model.enc_p/aten::add/Add_2" type="Add" version="opset1">
			<data auto_broadcast="numpy" />
			<input>
				<port id="0" precision="FP32">
					<dim>1</dim>
					<dim>-1</dim>
					<dim>192</dim>
				</port>
				<port id="1" precision="FP32">
					<dim>1</dim>
					<dim>-1</dim>
					<dim>192</dim>
				</port>
			</input>
			<output>
				<port id="2" precision="FP32" names="111">
					<dim>1</dim>
					<dim>-1</dim>
					<dim>192</dim>
				</port>
			</output>
		</layer>
		<layer id="51" name="ja_bert/fq_output_0/input_low" type="Const" version="opset1">
			<data element_type="f32" shape="" offset="0" size="4" />
			<output>
				<port id="0" precision="FP32" />
			</output>
		</layer>
		<layer id="52" name="ja_bert/fq_output_0/input_high" type="Const" version="opset1">
			<data element_type="f32" shape="" offset="223060" size="4" />
			<output>
				<port id="0" precision="FP32" />
			</output>
		</layer>
		<layer id="53" name="ja_bert/fq_output_0/output_low" type="Const" version="opset1">
			<data element_type="f32" shape="" offset="0" size="4" />
			<output>
				<port id="0" precision="FP32" />
			</output>
		</layer>
		<layer id="54" name="ja_bert/fq_output_0/output_high" type="Const" version="opset1">
			<data element_type="f32" shape="" offset="223060" size="4" />
			<output>
				<port id="0" precision="FP32" />
			</output>
		</layer>
		<layer id="55" name="ja_bert/fq_output_0" type="FakeQuantize" version="opset1">
			<data levels="256" auto_broadcast="numpy" />
			<input>
				<port id="0" precision="FP32">
					<dim>1</dim>
					<dim>768</dim>
					<dim>-1</dim>
				</port>
				<port id="1" precision="FP32" />
				<port id="2" precision="FP32" />
				<port id="3" precision="FP32" />
				<port id="4" precision="FP32" />
			</input>
			<output>
				<port id="5" precision="FP32">
					<dim>1</dim>
					<dim>768</dim>
					<dim>-1</dim>
				</port>
			</output>
		</layer>
		<layer id="56" name="Constant_4290547" type="Const" version="opset1">
			<data element_type="i8" shape="192, 768, 1" offset="223064" size="147456" />
			<output>
				<port id="0" precision="I8">
					<dim>192</dim>
					<dim>768</dim>
					<dim>1</dim>
				</port>
			</output>
		</layer>
		<layer id="57" name="Convert_4290548" type="Convert" version="opset1">
			<data destination_type="f32" />
			<input>
				<port id="0" precision="I8">
					<dim>192</dim>
					<dim>768</dim>
					<dim>1</dim>
				</port>
			</input>
			<output>
				<port id="1" precision="FP32">
					<dim>192</dim>
					<dim>768</dim>
					<dim>1</dim>
				</port>
			</output>
		</layer>
		<layer id="58" name="Constant_4290549" type="Const" version="opset1">
			<data element_type="f32" shape="192, 1, 1" offset="370520" size="768" />
			<output>
				<port id="0" precision="FP32">
					<dim>192</dim>
					<dim>1</dim>
					<dim>1</dim>
				</port>
			</output>
		</layer>
		<layer id="59" name="__module.model.enc_p.ja_bert_proj/aten::_convolution/Convolution/fq_weights_1" type="Multiply" version="opset1">
			<data auto_broadcast="numpy" />
			<input>
				<port id="0" precision="FP32">
					<dim>192</dim>
					<dim>768</dim>
					<dim>1</dim>
				</port>
				<port id="1" precision="FP32">
					<dim>192</dim>
					<dim>1</dim>
					<dim>1</dim>
				</port>
			</input>
			<output>
				<port id="2" precision="FP32">
					<dim>192</dim>
					<dim>768</dim>
					<dim>1</dim>
				</port>
			</output>
		</layer>
		<layer id="60" name="__module.model.enc_p.ja_bert_proj/aten::_convolution/Convolution" type="Convolution" version="opset1">
			<data strides="1" dilations="1" pads_begin="0" pads_end="0" auto_pad="explicit" />
			<input>
				<port id="0" precision="FP32">
					<dim>1</dim>
					<dim>768</dim>
					<dim>-1</dim>
				</port>
				<port id="1" precision="FP32">
					<dim>192</dim>
					<dim>768</dim>
					<dim>1</dim>
				</port>
			</input>
			<output>
				<port id="2" precision="FP32">
					<dim>1</dim>
					<dim>192</dim>
					<dim>-1</dim>
				</port>
			</output>
		</layer>
		<layer id="61" name="__module.model.enc_p.ja_bert_proj/aten::_convolution/Reshape" type="Const" version="opset1">
			<data element_type="f32" shape="1, 192, 1" offset="371288" size="768" />
			<output>
				<port id="0" precision="FP32">
					<dim>1</dim>
					<dim>192</dim>
					<dim>1</dim>
				</port>
			</output>
		</layer>
		<layer id="62" name="__module.model.enc_p.ja_bert_proj/aten::_convolution/Add" type="Add" version="opset1">
			<data auto_broadcast="numpy" />
			<input>
				<port id="0" precision="FP32">
					<dim>1</dim>
					<dim>192</dim>
					<dim>-1</dim>
				</port>
				<port id="1" precision="FP32">
					<dim>1</dim>
					<dim>192</dim>
					<dim>1</dim>
				</port>
			</input>
			<output>
				<port id="2" precision="FP32" names="101">
					<dim>1</dim>
					<dim>192</dim>
					<dim>-1</dim>
				</port>
			</output>
		</layer>
		<layer id="63" name="__module.model.enc_p/aten::transpose/ScatterElementsUpdate_1" type="Const" version="opset1">
			<data element_type="i32" shape="3" offset="223048" size="12" />
			<output>
				<port id="0" precision="I32">
					<dim>3</dim>
				</port>
			</output>
		</layer>
		<layer id="64" name="__module.model.enc_p/aten::transpose/Transpose_1" type="Transpose" version="opset1">
			<input>
				<port id="0" precision="FP32">
					<dim>1</dim>
					<dim>192</dim>
					<dim>-1</dim>
				</port>
				<port id="1" precision="I32">
					<dim>3</dim>
				</port>
			</input>
			<output>
				<port id="2" precision="FP32" names="102,ja_bert_emb">
					<dim>1</dim>
					<dim>-1</dim>
					<dim>192</dim>
				</port>
			</output>
		</layer>
		<layer id="65" name="__module.model.enc_p/aten::add/Add_3" type="Add" version="opset1">
			<data auto_broadcast="numpy" />
			<input>
				<port id="0" precision="FP32">
					<dim>1</dim>
					<dim>-1</dim>
					<dim>192</dim>
				</port>
				<port id="1" precision="FP32">
					<dim>1</dim>
					<dim>-1</dim>
					<dim>192</dim>
				</port>
			</input>
			<output>
				<port id="2" precision="FP32" names="112">
					<dim>1</dim>
					<dim>-1</dim>
					<dim>192</dim>
				</port>
			</output>
		</layer>
		<layer id="66" name="Constant_614752" type="Const" version="opset1">
			<data element_type="f32" shape="1, 1, 1" offset="372056" size="4" />
			<output>
				<port id="0" precision="FP32">
					<dim>1</dim>
					<dim>1</dim>
					<dim>1</dim>
				</port>
			</output>
		</layer>
		<layer id="67" name="__module.model.enc_p/aten::mul/Multiply" type="Multiply" version="opset1">
			<data auto_broadcast="numpy" />
			<input>
				<port id="0" precision="FP32">
					<dim>1</dim>
					<dim>-1</dim>
					<dim>192</dim>
				</port>
				<port id="1" precision="FP32">
					<dim>1</dim>
					<dim>1</dim>
					<dim>1</dim>
				</port>
			</input>
			<output>
				<port id="2" precision="FP32" names="113">
					<dim>1</dim>
					<dim>-1</dim>
					<dim>192</dim>
				</port>
			</output>
		</layer>
		<layer id="68" name="__module.model.enc_p/aten::transpose/ScatterElementsUpdate_2" type="Const" version="opset1">
			<data element_type="i32" shape="3" offset="223048" size="12" />
			<output>
				<port id="0" precision="I32">
					<dim>3</dim>
				</port>
			</output>
		</layer>
		<layer id="69" name="__module.model.enc_p/aten::transpose/Transpose_2" type="Transpose" version="opset1">
			<input>
				<port id="0" precision="FP32">
					<dim>1</dim>
					<dim>-1</dim>
					<dim>192</dim>
				</port>
				<port id="1" precision="I32">
					<dim>3</dim>
				</port>
			</input>
			<output>
				<port id="2" precision="FP32" names="114,x.3">
					<dim>1</dim>
					<dim>192</dim>
					<dim>-1</dim>
				</port>
			</output>
		</layer>
		<layer id="70" name="ShapeOf_639233" type="ShapeOf" version="opset3">
			<data output_type="i64" />
			<input>
				<port id="0" precision="FP32">
					<dim>1</dim>
					<dim>192</dim>
					<dim>-1</dim>
				</port>
			</input>
			<output>
				<port id="1" precision="I64">
					<dim>3</dim>
				</port>
			</output>
		</layer>
		<layer id="71" name="Constant_639234" type="Const" version="opset1">
			<data element_type="i64" shape="" offset="372060" size="8" />
			<output>
				<port id="0" precision="I64" />
			</output>
		</layer>
		<layer id="72" name="Constant_639235" type="Const" version="opset1">
			<data element_type="i64" shape="" offset="372068" size="8" />
			<output>
				<port id="0" precision="I64" />
			</output>
		</layer>
		<layer id="73" name="Gather_639236" type="Gather" version="opset8">
			<data batch_dims="0" />
			<input>
				<port id="0" precision="I64">
					<dim>3</dim>
				</port>
				<port id="1" precision="I64" />
				<port id="2" precision="I64" />
			</input>
			<output>
				<port id="3" precision="I64" names="115" />
			</output>
		</layer>
		<layer id="74" name="__module.model.enc_p/aten::arange/Constant_1" type="Const" version="opset1">
			<data element_type="i32" shape="" offset="372076" size="4" />
			<output>
				<port id="0" precision="I32" />
			</output>
		</layer>
		<layer id="75" name="__module.model.enc_p/aten::arange/Range" type="Range" version="opset4">
			<data output_type="i64" />
			<input>
				<port id="0" precision="I32" />
				<port id="1" precision="I64" />
				<port id="2" precision="I32" />
			</input>
			<output>
				<port id="3" precision="I64" names="116,x.5">
					<dim>-1</dim>
				</port>
			</output>
		</layer>
		<layer id="76" name="47" type="Const" version="opset1">
			<data element_type="i64" shape="" offset="372068" size="8" />
			<output>
				<port id="0" precision="I64" names="47" />
			</output>
		</layer>
		<layer id="77" name="__module.model.enc_p/aten::unsqueeze/Unsqueeze" type="Unsqueeze" version="opset1">
			<input>
				<port id="0" precision="I64">
					<dim>-1</dim>
				</port>
				<port id="1" precision="I64" />
			</input>
			<output>
				<port id="2" precision="I64" names="117">
					<dim>1</dim>
					<dim>-1</dim>
				</port>
			</output>
		</layer>
		<layer id="78" name="48" type="Const" version="opset1">
			<data element_type="i64" shape="" offset="372080" size="8" />
			<output>
				<port id="0" precision="I64" names="48" />
			</output>
		</layer>
		<layer id="79" name="__module.model.enc_p/aten::unsqueeze/Unsqueeze_1" type="Unsqueeze" version="opset1">
			<input>
				<port id="0" precision="I64">
					<dim>1</dim>
				</port>
				<port id="1" precision="I64" />
			</input>
			<output>
				<port id="2" precision="I64" names="118">
					<dim>1</dim>
					<dim>1</dim>
				</port>
			</output>
		</layer>
		<layer id="80" name="__module.model.enc_p/aten::lt/Less" type="Less" version="opset1">
			<data auto_broadcast="numpy" />
			<input>
				<port id="0" precision="I64">
					<dim>1</dim>
					<dim>-1</dim>
				</port>
				<port id="1" precision="I64">
					<dim>1</dim>
					<dim>1</dim>
				</port>
			</input>
			<output>
				<port id="2" precision="BOOL" names="119">
					<dim>1</dim>
					<dim>-1</dim>
				</port>
			</output>
		</layer>
		<layer id="81" name="__module.model.enc_p/aten::unsqueeze/Unsqueeze_2" type="Unsqueeze" version="opset1">
			<input>
				<port id="0" precision="BOOL">
					<dim>1</dim>
					<dim>-1</dim>
				</port>
				<port id="1" precision="I64" />
			</input>
			<output>
				<port id="2" precision="BOOL" names="120">
					<dim>1</dim>
					<dim>1</dim>
					<dim>-1</dim>
				</port>
			</output>
		</layer>
		<layer id="82" name="__module.model.enc_p/aten::to/Convert" type="Convert" version="opset1">
			<data destination_type="f32" />
			<input>
				<port id="0" precision="BOOL">
					<dim>1</dim>
					<dim>1</dim>
					<dim>-1</dim>
				</port>
			</input>
			<output>
				<port id="1" precision="FP32" names="121,1301,x_mask.1">
					<dim>1</dim>
					<dim>1</dim>
					<dim>-1</dim>
				</port>
			</output>
		</layer>
		<layer id="83" name="49" type="Const" version="opset1">
			<data element_type="i64" shape="" offset="372060" size="8" />
			<output>
				<port id="0" precision="I64" names="49" />
			</output>
		</layer>
		<layer id="84" name="__module.model.enc_p.encoder/aten::unsqueeze/Unsqueeze" type="Unsqueeze" version="opset1">
			<input>
				<port id="0" precision="FP32">
					<dim>1</dim>
					<dim>1</dim>
					<dim>-1</dim>
				</port>
				<port id="1" precision="I64" />
			</input>
			<output>
				<port id="2" precision="FP32" names="172,2392">
					<dim>1</dim>
					<dim>1</dim>
					<dim>1</dim>
					<dim>-1</dim>
				</port>
			</output>
		</layer>
		<layer id="85" name="__module.model/aten::arange/Constant_1" type="Const" version="opset1">
			<data element_type="i32" shape="" offset="0" size="4" />
			<output>
				<port id="0" precision="I32" />
			</output>
		</layer>
		<layer id="86" name="__module.model.enc_p/aten::mul/Multiply_1" type="Multiply" version="opset1">
			<data auto_broadcast="numpy" />
			<input>
				<port id="0" precision="FP32">
					<dim>1</dim>
					<dim>192</dim>
					<dim>-1</dim>
				</port>
				<port id="1" precision="FP32">
					<dim>1</dim>
					<dim>1</dim>
					<dim>-1</dim>
				</port>
			</input>
			<output>
				<port id="2" precision="FP32" names="122,x.7">
					<dim>1</dim>
					<dim>192</dim>
					<dim>-1</dim>
				</port>
			</output>
		</layer>
		<layer id="87" name="__module.model.enc_p.encoder/aten::mul/Multiply" type="Multiply" version="opset1">
			<data auto_broadcast="numpy" />
			<input>
				<port id="0" precision="FP32">
					<dim>1</dim>
					<dim>192</dim>
					<dim>-1</dim>
				</port>
				<port id="1" precision="FP32">
					<dim>1</dim>
					<dim>1</dim>
					<dim>-1</dim>
				</port>
			</input>
			<output>
				<port id="2" precision="FP32" names="175,x.17">
					<dim>1</dim>
					<dim>192</dim>
					<dim>-1</dim>
				</port>
			</output>
		</layer>
		<layer id="88" name="69" type="Const" version="opset1">
			<data element_type="i64" shape="" offset="372088" size="8" />
			<output>
				<port id="0" precision="I64" names="69" />
			</output>
		</layer>
		<layer id="89" name="__module.model.enc_p.encoder/aten::unsqueeze/Unsqueeze_1" type="Unsqueeze" version="opset1">
			<input>
				<port id="0" precision="FP32">
					<dim>1</dim>
					<dim>1</dim>
					<dim>-1</dim>
				</port>
				<port id="1" precision="I64" />
			</input>
			<output>
				<port id="2" precision="FP32" names="173">
					<dim>1</dim>
					<dim>1</dim>
					<dim>-1</dim>
					<dim>1</dim>
				</port>
			</output>
		</layer>
		<layer id="90" name="__module.model.enc_p.encoder/aten::mul/Multiply_1" type="Multiply" version="opset1">
			<data auto_broadcast="numpy" />
			<input>
				<port id="0" precision="FP32">
					<dim>1</dim>
					<dim>1</dim>
					<dim>1</dim>
					<dim>-1</dim>
				</port>
				<port id="1" precision="FP32">
					<dim>1</dim>
					<dim>1</dim>
					<dim>-1</dim>
					<dim>1</dim>
				</port>
			</input>
			<output>
				<port id="2" precision="FP32" names="174,mask.1">
					<dim>1</dim>
					<dim>1</dim>
					<dim>-1</dim>
					<dim>-1</dim>
				</port>
			</output>
		</layer>
		<layer id="91" name="Constant_614753" type="Const" version="opset1">
			<data element_type="f32" shape="1, 1, 1, 1" offset="0" size="4" />
			<output>
				<port id="0" precision="FP32">
					<dim>1</dim>
					<dim>1</dim>
					<dim>1</dim>
					<dim>1</dim>
				</port>
			</output>
		</layer>
		<layer id="92" name="__module.model.enc_p.encoder.attn_layers.0/aten::eq/Equal" type="Equal" version="opset1">
			<data auto_broadcast="numpy" />
			<input>
				<port id="0" precision="FP32">
					<dim>1</dim>
					<dim>1</dim>
					<dim>-1</dim>
					<dim>-1</dim>
				</port>
				<port id="1" precision="FP32">
					<dim>1</dim>
					<dim>1</dim>
					<dim>1</dim>
					<dim>1</dim>
				</port>
			</input>
			<output>
				<port id="2" precision="BOOL" names="1007,1191,264,448,639,823">
					<dim>1</dim>
					<dim>1</dim>
					<dim>-1</dim>
					<dim>-1</dim>
				</port>
			</output>
		</layer>
		<layer id="93" name="__module.model.enc_p.encoder.attn_layers.0/aten::masked_fill/ConvertLike" type="Const" version="opset1">
			<data element_type="f32" shape="" offset="372096" size="4" />
			<output>
				<port id="0" precision="FP32" />
			</output>
		</layer>
		<layer id="94" name="__module.model.enc_p.encoder.attn_layers.0.conv_q/aten::_convolution/Convolution/fq_input_0/input_low" type="Const" version="opset1">
			<data element_type="f32" shape="" offset="372100" size="4" />
			<output>
				<port id="0" precision="FP32" />
			</output>
		</layer>
		<layer id="95" name="__module.model.enc_p.encoder.attn_layers.0.conv_q/aten::_convolution/Convolution/fq_input_0/input_high" type="Const" version="opset1">
			<data element_type="f32" shape="" offset="372104" size="4" />
			<output>
				<port id="0" precision="FP32" />
			</output>
		</layer>
		<layer id="96" name="__module.model.enc_p.encoder.attn_layers.0.conv_q/aten::_convolution/Convolution/fq_input_0/output_low" type="Const" version="opset1">
			<data element_type="f32" shape="" offset="372100" size="4" />
			<output>
				<port id="0" precision="FP32" />
			</output>
		</layer>
		<layer id="97" name="__module.model.enc_p.encoder.attn_layers.0.conv_q/aten::_convolution/Convolution/fq_input_0/output_high" type="Const" version="opset1">
			<data element_type="f32" shape="" offset="372104" size="4" />
			<output>
				<port id="0" precision="FP32" />
			</output>
		</layer>
		<layer id="98" name="__module.model.enc_p.encoder.attn_layers.0.conv_q/aten::_convolution/Convolution/fq_input_0" type="FakeQuantize" version="opset1">
			<data levels="256" auto_broadcast="numpy" />
			<input>
				<port id="0" precision="FP32">
					<dim>1</dim>
					<dim>192</dim>
					<dim>-1</dim>
				</port>
				<port id="1" precision="FP32" />
				<port id="2" precision="FP32" />
				<port id="3" precision="FP32" />
				<port id="4" precision="FP32" />
			</input>
			<output>
				<port id="5" precision="FP32">
					<dim>1</dim>
					<dim>192</dim>
					<dim>-1</dim>
				</port>
			</output>
		</layer>
		<layer id="99" name="Constant_4290551" type="Const" version="opset1">
			<data element_type="i8" shape="192, 192, 1" offset="372108" size="36864" />
			<output>
				<port id="0" precision="I8">
					<dim>192</dim>
					<dim>192</dim>
					<dim>1</dim>
				</port>
			</output>
		</layer>
		<layer id="100" name="Convert_4290552" type="Convert" version="opset1">
			<data destination_type="f32" />
			<input>
				<port id="0" precision="I8">
					<dim>192</dim>
					<dim>192</dim>
					<dim>1</dim>
				</port>
			</input>
			<output>
				<port id="1" precision="FP32">
					<dim>192</dim>
					<dim>192</dim>
					<dim>1</dim>
				</port>
			</output>
		</layer>
		<layer id="101" name="Constant_4290553" type="Const" version="opset1">
			<data element_type="f32" shape="192, 1, 1" offset="408972" size="768" />
			<output>
				<port id="0" precision="FP32">
					<dim>192</dim>
					<dim>1</dim>
					<dim>1</dim>
				</port>
			</output>
		</layer>
		<layer id="102" name="__module.model.enc_p.encoder.attn_layers.0.conv_q/aten::_convolution/Convolution/fq_weights_1" type="Multiply" version="opset1">
			<data auto_broadcast="numpy" />
			<input>
				<port id="0" precision="FP32">
					<dim>192</dim>
					<dim>192</dim>
					<dim>1</dim>
				</port>
				<port id="1" precision="FP32">
					<dim>192</dim>
					<dim>1</dim>
					<dim>1</dim>
				</port>
			</input>
			<output>
				<port id="2" precision="FP32">
					<dim>192</dim>
					<dim>192</dim>
					<dim>1</dim>
				</port>
			</output>
		</layer>
		<layer id="103" name="__module.model.enc_p.encoder.attn_layers.0.conv_q/aten::_convolution/Convolution" type="Convolution" version="opset1">
			<data strides="1" dilations="1" pads_begin="0" pads_end="0" auto_pad="explicit" />
			<input>
				<port id="0" precision="FP32">
					<dim>1</dim>
					<dim>192</dim>
					<dim>-1</dim>
				</port>
				<port id="1" precision="FP32">
					<dim>192</dim>
					<dim>192</dim>
					<dim>1</dim>
				</port>
			</input>
			<output>
				<port id="2" precision="FP32">
					<dim>1</dim>
					<dim>192</dim>
					<dim>-1</dim>
				</port>
			</output>
		</layer>
		<layer id="104" name="__module.model.enc_p.encoder.attn_layers.0.conv_q/aten::_convolution/Reshape" type="Const" version="opset1">
			<data element_type="f32" shape="1, 192, 1" offset="409740" size="768" />
			<output>
				<port id="0" precision="FP32">
					<dim>1</dim>
					<dim>192</dim>
					<dim>1</dim>
				</port>
			</output>
		</layer>
		<layer id="105" name="__module.model.enc_p.encoder.attn_layers.0.conv_q/aten::_convolution/Add" type="Add" version="opset1">
			<data auto_broadcast="numpy" />
			<input>
				<port id="0" precision="FP32">
					<dim>1</dim>
					<dim>192</dim>
					<dim>-1</dim>
				</port>
				<port id="1" precision="FP32">
					<dim>1</dim>
					<dim>192</dim>
					<dim>1</dim>
				</port>
			</input>
			<output>
				<port id="2" precision="FP32" names="188,query.1">
					<dim>1</dim>
					<dim>192</dim>
					<dim>-1</dim>
				</port>
			</output>
		</layer>
		<layer id="106" name="Constant_652232" type="Const" version="opset1">
			<data element_type="i64" shape="4" offset="410508" size="32" />
			<output>
				<port id="0" precision="I64">
					<dim>4</dim>
				</port>
			</output>
		</layer>
		<layer id="107" name="__module.model.enc_p.encoder.attn_layers.0/aten::view/Reshape" type="Reshape" version="opset1">
			<data special_zero="true" />
			<input>
				<port id="0" precision="FP32">
					<dim>1</dim>
					<dim>192</dim>
					<dim>-1</dim>
				</port>
				<port id="1" precision="I64">
					<dim>4</dim>
				</port>
			</input>
			<output>
				<port id="2" precision="FP32" names="209">
					<dim>1</dim>
					<dim>2</dim>
					<dim>96</dim>
					<dim>-1</dim>
				</port>
			</output>
		</layer>
		<layer id="108" name="__module.model.enc_p.encoder.attn_layers.0/aten::transpose/ScatterElementsUpdate" type="Const" version="opset1">
			<data element_type="i32" shape="4" offset="410540" size="16" />
			<output>
				<port id="0" precision="I32">
					<dim>4</dim>
				</port>
			</output>
		</layer>
		<layer id="109" name="__module.model.enc_p.encoder.attn_layers.0/aten::transpose/Transpose" type="Transpose" version="opset1">
			<input>
				<port id="0" precision="FP32">
					<dim>1</dim>
					<dim>2</dim>
					<dim>96</dim>
					<dim>-1</dim>
				</port>
				<port id="1" precision="I32">
					<dim>4</dim>
				</port>
			</input>
			<output>
				<port id="2" precision="FP32" names="210,query.3">
					<dim>1</dim>
					<dim>2</dim>
					<dim>-1</dim>
					<dim>96</dim>
				</port>
			</output>
		</layer>
		<layer id="110" name="Constant_614754" type="Const" version="opset1">
			<data element_type="f32" shape="1, 1, 1, 1" offset="410556" size="4" />
			<output>
				<port id="0" precision="FP32">
					<dim>1</dim>
					<dim>1</dim>
					<dim>1</dim>
					<dim>1</dim>
				</port>
			</output>
		</layer>
		<layer id="111" name="__module.model.enc_p.encoder.attn_layers.0/aten::div/Divide" type="Divide" version="opset1">
			<data auto_broadcast="numpy" m_pythondiv="true" />
			<input>
				<port id="0" precision="FP32">
					<dim>1</dim>
					<dim>2</dim>
					<dim>-1</dim>
					<dim>96</dim>
				</port>
				<port id="1" precision="FP32">
					<dim>1</dim>
					<dim>1</dim>
					<dim>1</dim>
					<dim>1</dim>
				</port>
			</input>
			<output>
				<port id="2" precision="FP32" names="217,231">
					<dim>1</dim>
					<dim>2</dim>
					<dim>-1</dim>
					<dim>96</dim>
				</port>
			</output>
		</layer>
		<layer id="112" name="__module.model.enc_p.encoder.attn_layers.0/aten::div/Divide/fq_output_0/input_low" type="Const" version="opset1">
			<data element_type="f32" shape="" offset="410560" size="4" />
			<output>
				<port id="0" precision="FP32" />
			</output>
		</layer>
		<layer id="113" name="__module.model.enc_p.encoder.attn_layers.0/aten::div/Divide/fq_output_0/input_high" type="Const" version="opset1">
			<data element_type="f32" shape="" offset="410564" size="4" />
			<output>
				<port id="0" precision="FP32" />
			</output>
		</layer>
		<layer id="114" name="__module.model.enc_p.encoder.attn_layers.0/aten::div/Divide/fq_output_0/output_low" type="Const" version="opset1">
			<data element_type="f32" shape="" offset="410560" size="4" />
			<output>
				<port id="0" precision="FP32" />
			</output>
		</layer>
		<layer id="115" name="__module.model.enc_p.encoder.attn_layers.0/aten::div/Divide/fq_output_0/output_high" type="Const" version="opset1">
			<data element_type="f32" shape="" offset="410564" size="4" />
			<output>
				<port id="0" precision="FP32" />
			</output>
		</layer>
		<layer id="116" name="__module.model.enc_p.encoder.attn_layers.0/aten::div/Divide/fq_output_0" type="FakeQuantize" version="opset1">
			<data levels="256" auto_broadcast="numpy" />
			<input>
				<port id="0" precision="FP32">
					<dim>1</dim>
					<dim>2</dim>
					<dim>-1</dim>
					<dim>96</dim>
				</port>
				<port id="1" precision="FP32" />
				<port id="2" precision="FP32" />
				<port id="3" precision="FP32" />
				<port id="4" precision="FP32" />
			</input>
			<output>
				<port id="5" precision="FP32">
					<dim>1</dim>
					<dim>2</dim>
					<dim>-1</dim>
					<dim>96</dim>
				</port>
			</output>
		</layer>
		<layer id="117" name="__module.model.enc_p.encoder.attn_layers.0.conv_k/aten::_convolution/Convolution/fq_input_0/input_low" type="Const" version="opset1">
			<data element_type="f32" shape="" offset="372100" size="4" />
			<output>
				<port id="0" precision="FP32" />
			</output>
		</layer>
		<layer id="118" name="__module.model.enc_p.encoder.attn_layers.0.conv_k/aten::_convolution/Convolution/fq_input_0/input_high" type="Const" version="opset1">
			<data element_type="f32" shape="" offset="372104" size="4" />
			<output>
				<port id="0" precision="FP32" />
			</output>
		</layer>
		<layer id="119" name="__module.model.enc_p.encoder.attn_layers.0.conv_k/aten::_convolution/Convolution/fq_input_0/output_low" type="Const" version="opset1">
			<data element_type="f32" shape="" offset="372100" size="4" />
			<output>
				<port id="0" precision="FP32" />
			</output>
		</layer>
		<layer id="120" name="__module.model.enc_p.encoder.attn_layers.0.conv_k/aten::_convolution/Convolution/fq_input_0/output_high" type="Const" version="opset1">
			<data element_type="f32" shape="" offset="372104" size="4" />
			<output>
				<port id="0" precision="FP32" />
			</output>
		</layer>
		<layer id="121" name="__module.model.enc_p.encoder.attn_layers.0.conv_k/aten::_convolution/Convolution/fq_input_0" type="FakeQuantize" version="opset1">
			<data levels="256" auto_broadcast="numpy" />
			<input>
				<port id="0" precision="FP32">
					<dim>1</dim>
					<dim>192</dim>
					<dim>-1</dim>
				</port>
				<port id="1" precision="FP32" />
				<port id="2" precision="FP32" />
				<port id="3" precision="FP32" />
				<port id="4" precision="FP32" />
			</input>
			<output>
				<port id="5" precision="FP32">
					<dim>1</dim>
					<dim>192</dim>
					<dim>-1</dim>
				</port>
			</output>
		</layer>
		<layer id="122" name="Constant_4290555" type="Const" version="opset1">
			<data element_type="i8" shape="192, 192, 1" offset="410568" size="36864" />
			<output>
				<port id="0" precision="I8">
					<dim>192</dim>
					<dim>192</dim>
					<dim>1</dim>
				</port>
			</output>
		</layer>
		<layer id="123" name="Convert_4290556" type="Convert" version="opset1">
			<data destination_type="f32" />
			<input>
				<port id="0" precision="I8">
					<dim>192</dim>
					<dim>192</dim>
					<dim>1</dim>
				</port>
			</input>
			<output>
				<port id="1" precision="FP32">
					<dim>192</dim>
					<dim>192</dim>
					<dim>1</dim>
				</port>
			</output>
		</layer>
		<layer id="124" name="Constant_4290557" type="Const" version="opset1">
			<data element_type="f32" shape="192, 1, 1" offset="447432" size="768" />
			<output>
				<port id="0" precision="FP32">
					<dim>192</dim>
					<dim>1</dim>
					<dim>1</dim>
				</port>
			</output>
		</layer>
		<layer id="125" name="__module.model.enc_p.encoder.attn_layers.0.conv_k/aten::_convolution/Convolution/fq_weights_1" type="Multiply" version="opset1">
			<data auto_broadcast="numpy" />
			<input>
				<port id="0" precision="FP32">
					<dim>192</dim>
					<dim>192</dim>
					<dim>1</dim>
				</port>
				<port id="1" precision="FP32">
					<dim>192</dim>
					<dim>1</dim>
					<dim>1</dim>
				</port>
			</input>
			<output>
				<port id="2" precision="FP32">
					<dim>192</dim>
					<dim>192</dim>
					<dim>1</dim>
				</port>
			</output>
		</layer>
		<layer id="126" name="__module.model.enc_p.encoder.attn_layers.0.conv_k/aten::_convolution/Convolution" type="Convolution" version="opset1">
			<data strides="1" dilations="1" pads_begin="0" pads_end="0" auto_pad="explicit" />
			<input>
				<port id="0" precision="FP32">
					<dim>1</dim>
					<dim>192</dim>
					<dim>-1</dim>
				</port>
				<port id="1" precision="FP32">
					<dim>192</dim>
					<dim>192</dim>
					<dim>1</dim>
				</port>
			</input>
			<output>
				<port id="2" precision="FP32">
					<dim>1</dim>
					<dim>192</dim>
					<dim>-1</dim>
				</port>
			</output>
		</layer>
		<layer id="127" name="__module.model.enc_p.encoder.attn_layers.0.conv_k/aten::_convolution/Reshape" type="Const" version="opset1">
			<data element_type="f32" shape="1, 192, 1" offset="448200" size="768" />
			<output>
				<port id="0" precision="FP32">
					<dim>1</dim>
					<dim>192</dim>
					<dim>1</dim>
				</port>
			</output>
		</layer>
		<layer id="128" name="__module.model.enc_p.encoder.attn_layers.0.conv_k/aten::_convolution/Add" type="Add" version="opset1">
			<data auto_broadcast="numpy" />
			<input>
				<port id="0" precision="FP32">
					<dim>1</dim>
					<dim>192</dim>
					<dim>-1</dim>
				</port>
				<port id="1" precision="FP32">
					<dim>1</dim>
					<dim>192</dim>
					<dim>1</dim>
				</port>
			</input>
			<output>
				<port id="2" precision="FP32" names="195,key.1">
					<dim>1</dim>
					<dim>192</dim>
					<dim>-1</dim>
				</port>
			</output>
		</layer>
		<layer id="129" name="__module.model.enc_p.encoder.attn_layers.0.conv_k/aten::_convolution/Add/fq_output_0/input_low" type="Const" version="opset1">
			<data element_type="f32" shape="" offset="448968" size="4" />
			<output>
				<port id="0" precision="FP32" />
			</output>
		</layer>
		<layer id="130" name="__module.model.enc_p.encoder.attn_layers.0.conv_k/aten::_convolution/Add/fq_output_0/input_high" type="Const" version="opset1">
			<data element_type="f32" shape="" offset="448972" size="4" />
			<output>
				<port id="0" precision="FP32" />
			</output>
		</layer>
		<layer id="131" name="__module.model.enc_p.encoder.attn_layers.0.conv_k/aten::_convolution/Add/fq_output_0/output_low" type="Const" version="opset1">
			<data element_type="f32" shape="" offset="448968" size="4" />
			<output>
				<port id="0" precision="FP32" />
			</output>
		</layer>
		<layer id="132" name="__module.model.enc_p.encoder.attn_layers.0.conv_k/aten::_convolution/Add/fq_output_0/output_high" type="Const" version="opset1">
			<data element_type="f32" shape="" offset="448972" size="4" />
			<output>
				<port id="0" precision="FP32" />
			</output>
		</layer>
		<layer id="133" name="__module.model.enc_p.encoder.attn_layers.0.conv_k/aten::_convolution/Add/fq_output_0" type="FakeQuantize" version="opset1">
			<data levels="256" auto_broadcast="numpy" />
			<input>
				<port id="0" precision="FP32">
					<dim>1</dim>
					<dim>192</dim>
					<dim>-1</dim>
				</port>
				<port id="1" precision="FP32" />
				<port id="2" precision="FP32" />
				<port id="3" precision="FP32" />
				<port id="4" precision="FP32" />
			</input>
			<output>
				<port id="5" precision="FP32">
					<dim>1</dim>
					<dim>192</dim>
					<dim>-1</dim>
				</port>
			</output>
		</layer>
		<layer id="134" name="Constant_652233" type="Const" version="opset1">
			<data element_type="i64" shape="4" offset="410508" size="32" />
			<output>
				<port id="0" precision="I64">
					<dim>4</dim>
				</port>
			</output>
		</layer>
		<layer id="135" name="__module.model.enc_p.encoder.attn_layers.0/aten::view/Reshape_1" type="Reshape" version="opset1">
			<data special_zero="true" />
			<input>
				<port id="0" precision="FP32">
					<dim>1</dim>
					<dim>192</dim>
					<dim>-1</dim>
				</port>
				<port id="1" precision="I64">
					<dim>4</dim>
				</port>
			</input>
			<output>
				<port id="2" precision="FP32" names="212,218">
					<dim>1</dim>
					<dim>2</dim>
					<dim>96</dim>
					<dim>-1</dim>
				</port>
			</output>
		</layer>
		<layer id="136" name="__module.model.enc_p.encoder.attn_layers.0/aten::matmul/MatMul" type="MatMul" version="opset1">
			<data transpose_a="false" transpose_b="false" />
			<input>
				<port id="0" precision="FP32">
					<dim>1</dim>
					<dim>2</dim>
					<dim>-1</dim>
					<dim>96</dim>
				</port>
				<port id="1" precision="FP32">
					<dim>1</dim>
					<dim>2</dim>
					<dim>96</dim>
					<dim>-1</dim>
				</port>
			</input>
			<output>
				<port id="2" precision="FP32" names="219,scores.1">
					<dim>1</dim>
					<dim>2</dim>
					<dim>-1</dim>
					<dim>-1</dim>
				</port>
			</output>
		</layer>
		<layer id="137" name="self.model.enc_p.encoder.attn_layers.0.emb_rel_k" type="Const" version="opset1">
			<data element_type="f32" shape="1, 9, 96" offset="448976" size="3456" />
			<output>
				<port id="0" precision="FP32" names="self.model.enc_p.encoder.attn_layers.0.emb_rel_k">
					<dim>1</dim>
					<dim>9</dim>
					<dim>96</dim>
				</port>
			</output>
		</layer>
		<layer id="138" name="Unsqueeze_165927" type="Const" version="opset1">
			<data element_type="i64" shape="1" offset="372068" size="8" />
			<output>
				<port id="0" precision="I64">
					<dim>1</dim>
				</port>
			</output>
		</layer>
		<layer id="139" name="ShapeOf_639238" type="ShapeOf" version="opset3">
			<data output_type="i64" />
			<input>
				<port id="0" precision="FP32">
					<dim>1</dim>
					<dim>192</dim>
					<dim>-1</dim>
				</port>
			</input>
			<output>
				<port id="1" precision="I64">
					<dim>3</dim>
				</port>
			</output>
		</layer>
		<layer id="140" name="Constant_639249" type="Const" version="opset1">
			<data element_type="i64" shape="" offset="372060" size="8" />
			<output>
				<port id="0" precision="I64" />
			</output>
		</layer>
		<layer id="141" name="Constant_639250" type="Const" version="opset1">
			<data element_type="i64" shape="" offset="372068" size="8" />
			<output>
				<port id="0" precision="I64" />
			</output>
		</layer>
		<layer id="142" name="Gather_639251" type="Gather" version="opset8">
			<data batch_dims="0" />
			<input>
				<port id="0" precision="I64">
					<dim>3</dim>
				</port>
				<port id="1" precision="I64" />
				<port id="2" precision="I64" />
			</input>
			<output>
				<port id="3" precision="I64" names="205" />
			</output>
		</layer>
		<layer id="143" name="Constant_165926" type="Const" version="opset1">
			<data element_type="i32" shape="" offset="0" size="4" />
			<output>
				<port id="0" precision="I32" />
			</output>
		</layer>
		<layer id="144" name="Unsqueeze_638979" type="Unsqueeze" version="opset1">
			<input>
				<port id="0" precision="I64" />
				<port id="1" precision="I32" />
			</input>
			<output>
				<port id="2" precision="I64">
					<dim>1</dim>
				</port>
			</output>
		</layer>
		<layer id="145" name="Constant_638981" type="Const" version="opset1">
			<data element_type="i64" shape="1" offset="452432" size="8" />
			<output>
				<port id="0" precision="I64">
					<dim>1</dim>
				</port>
			</output>
		</layer>
		<layer id="146" name="__module.model.enc_p.encoder.attn_layers.0/aten::sub/Subtract" type="Add" version="opset1">
			<data auto_broadcast="numpy" />
			<input>
				<port id="0" precision="I64">
					<dim>1</dim>
				</port>
				<port id="1" precision="I64">
					<dim>1</dim>
				</port>
			</input>
			<output>
				<port id="2" precision="I64" names="220,221,222,294,295,296,pad_length.1,pad_length.3">
					<dim>1</dim>
				</port>
			</output>
		</layer>
		<layer id="147" name="Concat_165933" type="Concat" version="opset1">
			<data axis="0" />
			<input>
				<port id="0" precision="I64">
					<dim>1</dim>
				</port>
				<port id="1" precision="I64">
					<dim>1</dim>
				</port>
				<port id="2" precision="I64">
					<dim>1</dim>
				</port>
				<port id="3" precision="I64">
					<dim>1</dim>
				</port>
				<port id="4" precision="I64">
					<dim>1</dim>
				</port>
				<port id="5" precision="I64">
					<dim>1</dim>
				</port>
			</input>
			<output>
				<port id="6" precision="I64">
					<dim>6</dim>
				</port>
			</output>
		</layer>
		<layer id="148" name="__module.model.enc_p.encoder.attn_layers.0/aten::pad/Range" type="Const" version="opset1">
			<data element_type="i32" shape="3" offset="452440" size="12" />
			<output>
				<port id="0" precision="I32">
					<dim>3</dim>
				</port>
			</output>
		</layer>
		<layer id="149" name="Constant_165942" type="Const" version="opset1">
			<data element_type="i32" shape="" offset="0" size="4" />
			<output>
				<port id="0" precision="I32" />
			</output>
		</layer>
		<layer id="150" name="__module.model.enc_p.encoder.attn_layers.0/aten::pad/Gather" type="Gather" version="opset8">
			<data batch_dims="0" />
			<input>
				<port id="0" precision="I64">
					<dim>6</dim>
				</port>
				<port id="1" precision="I32">
					<dim>3</dim>
				</port>
				<port id="2" precision="I32" />
			</input>
			<output>
				<port id="3" precision="I64">
					<dim>3</dim>
				</port>
			</output>
		</layer>
		<layer id="151" name="__module.model.enc_p.encoder.attn_layers.0/aten::pad/Range_4" type="Const" version="opset1">
			<data element_type="i32" shape="3" offset="452452" size="12" />
			<output>
				<port id="0" precision="I32">
					<dim>3</dim>
				</port>
			</output>
		</layer>
		<layer id="152" name="Constant_165960" type="Const" version="opset1">
			<data element_type="i32" shape="" offset="0" size="4" />
			<output>
				<port id="0" precision="I32" />
			</output>
		</layer>
		<layer id="153" name="__module.model.enc_p.encoder.attn_layers.0/aten::pad/Gather_5" type="Gather" version="opset8">
			<data batch_dims="0" />
			<input>
				<port id="0" precision="I64">
					<dim>6</dim>
				</port>
				<port id="1" precision="I32">
					<dim>3</dim>
				</port>
				<port id="2" precision="I32" />
			</input>
			<output>
				<port id="3" precision="I64">
					<dim>3</dim>
				</port>
			</output>
		</layer>
		<layer id="154" name="__module.model.enc_p.encoder.attn_layers.0/aten::pad/ConvertLike_11" type="Const" version="opset1">
			<data element_type="f32" shape="" offset="0" size="4" />
			<output>
				<port id="0" precision="FP32" />
			</output>
		</layer>
		<layer id="155" name="__module.model.enc_p.encoder.attn_layers.0/aten::pad" type="Pad" version="opset1">
			<data pad_mode="constant" />
			<input>
				<port id="0" precision="FP32">
					<dim>1</dim>
					<dim>9</dim>
					<dim>96</dim>
				</port>
				<port id="1" precision="I64">
					<dim>3</dim>
				</port>
				<port id="2" precision="I64">
					<dim>3</dim>
				</port>
				<port id="3" precision="FP32" />
			</input>
			<output>
				<port id="4" precision="FP32" names="228,229,padded_relative_embeddings.1">
					<dim>1</dim>
					<dim>-1</dim>
					<dim>96</dim>
				</port>
			</output>
		</layer>
		<layer id="156" name="__module.model.enc_p.encoder.attn_layers.0/aten::slice/Reshape_4" type="Const" version="opset1">
			<data element_type="i64" shape="1" offset="372068" size="8" />
			<output>
				<port id="0" precision="I64">
					<dim>1</dim>
				</port>
			</output>
		</layer>
		<layer id="157" name="Constant_9910" type="Const" version="opset1">
			<data element_type="i64" shape="" offset="372060" size="8" />
			<output>
				<port id="0" precision="I64" names="62" />
			</output>
		</layer>
		<layer id="158" name="__module.model.enc_p.encoder.attn_layers.0/aten::mul/Multiply" type="Multiply" version="opset1">
			<data auto_broadcast="numpy" />
			<input>
				<port id="0" precision="I64" />
				<port id="1" precision="I64" />
			</input>
			<output>
				<port id="2" precision="I64" names="223,224,297,298" />
			</output>
		</layer>
		<layer id="159" name="Constant_612468" type="Const" version="opset1">
			<data element_type="i64" shape="" offset="372088" size="8" />
			<output>
				<port id="0" precision="I64" />
			</output>
		</layer>
		<layer id="160" name="__module.model.enc_p.encoder.attn_layers.0/aten::sub/Subtract_1" type="Add" version="opset1">
			<data auto_broadcast="numpy" />
			<input>
				<port id="0" precision="I64" />
				<port id="1" precision="I64" />
			</input>
			<output>
				<port id="2" precision="I64" names="225,226,299,300,slice_end_position.1,slice_end_position.3" />
			</output>
		</layer>
		<layer id="161" name="Constant_715371" type="Const" version="opset1">
			<data element_type="i64" shape="1" offset="372088" size="8" />
			<output>
				<port id="0" precision="I64">
					<dim>1</dim>
				</port>
			</output>
		</layer>
		<layer id="162" name="Reshape_639254" type="Reshape" version="opset1">
			<data special_zero="false" />
			<input>
				<port id="0" precision="I64" />
				<port id="1" precision="I64">
					<dim>1</dim>
				</port>
			</input>
			<output>
				<port id="2" precision="I64">
					<dim>1</dim>
				</port>
			</output>
		</layer>
		<layer id="163" name="__module.model.enc_p.encoder.attn_layers.0/aten::slice/Reshape_6" type="Const" version="opset1">
			<data element_type="i64" shape="1" offset="372080" size="8" />
			<output>
				<port id="0" precision="I64">
					<dim>1</dim>
				</port>
			</output>
		</layer>
		<layer id="164" name="__module.model.enc_p.encoder.attn_layers.0/aten::slice/Reshape_7" type="Const" version="opset1">
			<data element_type="i64" shape="1" offset="372080" size="8" />
			<output>
				<port id="0" precision="I64">
					<dim>1</dim>
				</port>
			</output>
		</layer>
		<layer id="165" name="__module.model.enc_p.encoder.attn_layers.0/aten::slice/Slice_1" type="Slice" version="opset8">
			<input>
				<port id="0" precision="FP32">
					<dim>1</dim>
					<dim>-1</dim>
					<dim>96</dim>
				</port>
				<port id="1" precision="I64">
					<dim>1</dim>
				</port>
				<port id="2" precision="I64">
					<dim>1</dim>
				</port>
				<port id="3" precision="I64">
					<dim>1</dim>
				</port>
				<port id="4" precision="I64">
					<dim>1</dim>
				</port>
			</input>
			<output>
				<port id="5" precision="FP32" names="230,y.1">
					<dim>1</dim>
					<dim>-1</dim>
					<dim>96</dim>
				</port>
			</output>
		</layer>
		<layer id="166" name="__module.model.enc_p.encoder.attn_layers.0/aten::unsqueeze/Unsqueeze" type="Unsqueeze" version="opset1">
			<input>
				<port id="0" precision="FP32">
					<dim>1</dim>
					<dim>-1</dim>
					<dim>96</dim>
				</port>
				<port id="1" precision="I64" />
			</input>
			<output>
				<port id="2" precision="FP32" names="232">
					<dim>1</dim>
					<dim>1</dim>
					<dim>-1</dim>
					<dim>96</dim>
				</port>
			</output>
		</layer>
		<layer id="167" name="__module.model.enc_p.encoder.attn_layers.0/aten::matmul/MatMul_1" type="MatMul" version="opset1">
			<data transpose_a="false" transpose_b="true" />
			<input>
				<port id="0" precision="FP32">
					<dim>1</dim>
					<dim>2</dim>
					<dim>-1</dim>
					<dim>96</dim>
				</port>
				<port id="1" precision="FP32">
					<dim>1</dim>
					<dim>1</dim>
					<dim>-1</dim>
					<dim>96</dim>
				</port>
			</input>
			<output>
				<port id="2" precision="FP32" names="234,x.9">
					<dim>1</dim>
					<dim>2</dim>
					<dim>-1</dim>
					<dim>-1</dim>
				</port>
			</output>
		</layer>
		<layer id="168" name="__module.model.enc_p.encoder.attn_layers.0/aten::pad/Concat_1" type="Const" version="opset1">
			<data element_type="i32" shape="4" offset="452464" size="16" />
			<output>
				<port id="0" precision="I32">
					<dim>4</dim>
				</port>
			</output>
		</layer>
		<layer id="169" name="__module.model.enc_p.encoder.attn_layers.0/aten::pad/Concat_2" type="Const" version="opset1">
			<data element_type="i32" shape="4" offset="452480" size="16" />
			<output>
				<port id="0" precision="I32">
					<dim>4</dim>
				</port>
			</output>
		</layer>
		<layer id="170" name="__module.model.enc_p.encoder.attn_layers.0/aten::pad/ConvertLike_1" type="Const" version="opset1">
			<data element_type="f32" shape="" offset="0" size="4" />
			<output>
				<port id="0" precision="FP32" />
			</output>
		</layer>
		<layer id="171" name="__module.model.enc_p.encoder.attn_layers.0/aten::pad/Pad" type="Pad" version="opset1">
			<data pad_mode="constant" />
			<input>
				<port id="0" precision="FP32">
					<dim>1</dim>
					<dim>2</dim>
					<dim>-1</dim>
					<dim>-1</dim>
				</port>
				<port id="1" precision="I32">
					<dim>4</dim>
				</port>
				<port id="2" precision="I32">
					<dim>4</dim>
				</port>
				<port id="3" precision="FP32" />
			</input>
			<output>
				<port id="4" precision="FP32" names="240,x.11">
					<dim>1</dim>
					<dim>2</dim>
					<dim>-1</dim>
					<dim>-1</dim>
				</port>
			</output>
		</layer>
		<layer id="172" name="Constant_652234" type="Const" version="opset1">
			<data element_type="i64" shape="3" offset="452496" size="24" />
			<output>
				<port id="0" precision="I64">
					<dim>3</dim>
				</port>
			</output>
		</layer>
		<layer id="173" name="__module.model.enc_p.encoder.attn_layers.0/aten::view/Reshape_2" type="Reshape" version="opset1">
			<data special_zero="true" />
			<input>
				<port id="0" precision="FP32">
					<dim>1</dim>
					<dim>2</dim>
					<dim>-1</dim>
					<dim>-1</dim>
				</port>
				<port id="1" precision="I64">
					<dim>3</dim>
				</port>
			</input>
			<output>
				<port id="2" precision="FP32" names="245,input.3">
					<dim>1</dim>
					<dim>2</dim>
					<dim>-1</dim>
				</port>
			</output>
		</layer>
		<layer id="174" name="ShapeOf_639243" type="ShapeOf" version="opset3">
			<data output_type="i64" />
			<input>
				<port id="0" precision="FP32">
					<dim>1</dim>
					<dim>192</dim>
					<dim>-1</dim>
				</port>
			</input>
			<output>
				<port id="1" precision="I64">
					<dim>3</dim>
				</port>
			</output>
		</layer>
		<layer id="175" name="Constant_639244" type="Const" version="opset1">
			<data element_type="i64" shape="1" offset="372060" size="8" />
			<output>
				<port id="0" precision="I64">
					<dim>1</dim>
				</port>
			</output>
		</layer>
		<layer id="176" name="Constant_639245" type="Const" version="opset1">
			<data element_type="i64" shape="" offset="372068" size="8" />
			<output>
				<port id="0" precision="I64" />
			</output>
		</layer>
		<layer id="177" name="Gather_639246" type="Gather" version="opset8">
			<data batch_dims="0" />
			<input>
				<port id="0" precision="I64">
					<dim>3</dim>
				</port>
				<port id="1" precision="I64">
					<dim>1</dim>
				</port>
				<port id="2" precision="I64" />
			</input>
			<output>
				<port id="3" precision="I64" names="207">
					<dim>1</dim>
				</port>
			</output>
		</layer>
		<layer id="178" name="Squeeze_639376" type="Squeeze" version="opset1">
			<input>
				<port id="0" precision="I64">
					<dim>1</dim>
				</port>
			</input>
			<output>
				<port id="1" precision="I64" names="237" />
			</output>
		</layer>
		<layer id="179" name="Constant_715372" type="Const" version="opset1">
			<data element_type="i64" shape="1" offset="372088" size="8" />
			<output>
				<port id="0" precision="I64">
					<dim>1</dim>
				</port>
			</output>
		</layer>
		<layer id="180" name="Reshape_652532" type="Reshape" version="opset1">
			<data special_zero="false" />
			<input>
				<port id="0" precision="I64" />
				<port id="1" precision="I64">
					<dim>1</dim>
				</port>
			</input>
			<output>
				<port id="2" precision="I64">
					<dim>1</dim>
				</port>
			</output>
		</layer>
		<layer id="181" name="Constant_652534" type="Const" version="opset1">
			<data element_type="i64" shape="1" offset="372088" size="8" />
			<output>
				<port id="0" precision="I64">
					<dim>1</dim>
				</port>
			</output>
		</layer>
		<layer id="182" name="__module.model.enc_p.encoder.attn_layers.0/aten::sub/Subtract_2" type="Add" version="opset1">
			<data auto_broadcast="numpy" />
			<input>
				<port id="0" precision="I64">
					<dim>1</dim>
				</port>
				<port id="1" precision="I64">
					<dim>1</dim>
				</port>
			</input>
			<output>
				<port id="2" precision="I64" names="246,247,257,258">
					<dim>1</dim>
				</port>
			</output>
		</layer>
		<layer id="183" name="Concat_166140" type="Concat" version="opset1">
			<data axis="0" />
			<input>
				<port id="0" precision="I64">
					<dim>1</dim>
				</port>
				<port id="1" precision="I64">
					<dim>1</dim>
				</port>
				<port id="2" precision="I64">
					<dim>1</dim>
				</port>
				<port id="3" precision="I64">
					<dim>1</dim>
				</port>
				<port id="4" precision="I64">
					<dim>1</dim>
				</port>
				<port id="5" precision="I64">
					<dim>1</dim>
				</port>
			</input>
			<output>
				<port id="6" precision="I64">
					<dim>6</dim>
				</port>
			</output>
		</layer>
		<layer id="184" name="__module.model.enc_p.encoder.attn_layers.0/aten::pad/Range_1" type="Const" version="opset1">
			<data element_type="i32" shape="3" offset="452440" size="12" />
			<output>
				<port id="0" precision="I32">
					<dim>3</dim>
				</port>
			</output>
		</layer>
		<layer id="185" name="Constant_166149" type="Const" version="opset1">
			<data element_type="i32" shape="" offset="0" size="4" />
			<output>
				<port id="0" precision="I32" />
			</output>
		</layer>
		<layer id="186" name="__module.model.enc_p.encoder.attn_layers.0/aten::pad/Gather_1" type="Gather" version="opset8">
			<data batch_dims="0" />
			<input>
				<port id="0" precision="I64">
					<dim>6</dim>
				</port>
				<port id="1" precision="I32">
					<dim>3</dim>
				</port>
				<port id="2" precision="I32" />
			</input>
			<output>
				<port id="3" precision="I64">
					<dim>3</dim>
				</port>
			</output>
		</layer>
		<layer id="187" name="__module.model.enc_p.encoder.attn_layers.0/aten::pad/Range_4_1" type="Const" version="opset1">
			<data element_type="i32" shape="3" offset="452452" size="12" />
			<output>
				<port id="0" precision="I32">
					<dim>3</dim>
				</port>
			</output>
		</layer>
		<layer id="188" name="Constant_166167" type="Const" version="opset1">
			<data element_type="i32" shape="" offset="0" size="4" />
			<output>
				<port id="0" precision="I32" />
			</output>
		</layer>
		<layer id="189" name="__module.model.enc_p.encoder.attn_layers.0/aten::pad/Gather_5_1" type="Gather" version="opset8">
			<data batch_dims="0" />
			<input>
				<port id="0" precision="I64">
					<dim>6</dim>
				</port>
				<port id="1" precision="I32">
					<dim>3</dim>
				</port>
				<port id="2" precision="I32" />
			</input>
			<output>
				<port id="3" precision="I64">
					<dim>3</dim>
				</port>
			</output>
		</layer>
		<layer id="190" name="__module.model.enc_p.encoder.attn_layers.0/aten::pad/ConvertLike_11_1" type="Const" version="opset1">
			<data element_type="f32" shape="" offset="0" size="4" />
			<output>
				<port id="0" precision="FP32" />
			</output>
		</layer>
		<layer id="191" name="__module.model.enc_p.encoder.attn_layers.0/aten::pad_1" type="Pad" version="opset1">
			<data pad_mode="constant" />
			<input>
				<port id="0" precision="FP32">
					<dim>1</dim>
					<dim>2</dim>
					<dim>-1</dim>
				</port>
				<port id="1" precision="I64">
					<dim>3</dim>
				</port>
				<port id="2" precision="I64">
					<dim>3</dim>
				</port>
				<port id="3" precision="FP32" />
			</input>
			<output>
				<port id="4" precision="FP32" names="249,x_flat.1">
					<dim>1</dim>
					<dim>2</dim>
					<dim>-1</dim>
				</port>
			</output>
		</layer>
		<layer id="192" name="__module.model.enc_p.encoder.attn_layers.0/aten::size/ShapeOf_3" type="ShapeOf" version="opset3">
			<data output_type="i64" />
			<input>
				<port id="0" precision="FP32">
					<dim>1</dim>
					<dim>2</dim>
					<dim>-1</dim>
					<dim>-1</dim>
				</port>
			</input>
			<output>
				<port id="1" precision="I64">
					<dim>4</dim>
				</port>
			</output>
		</layer>
		<layer id="193" name="Constant_584548" type="Const" version="opset1">
			<data element_type="i64" shape="2" offset="452520" size="16" />
			<output>
				<port id="0" precision="I64">
					<dim>2</dim>
				</port>
			</output>
		</layer>
		<layer id="194" name="Constant_584549" type="Const" version="opset1">
			<data element_type="i64" shape="" offset="372068" size="8" />
			<output>
				<port id="0" precision="I64" />
			</output>
		</layer>
		<layer id="195" name="Gather_584550" type="Gather" version="opset8">
			<data batch_dims="0" />
			<input>
				<port id="0" precision="I64">
					<dim>4</dim>
				</port>
				<port id="1" precision="I64">
					<dim>2</dim>
				</port>
				<port id="2" precision="I64" />
			</input>
			<output>
				<port id="3" precision="I64">
					<dim>2</dim>
				</port>
			</output>
		</layer>
		<layer id="196" name="Constant_638987" type="Const" version="opset1">
			<data element_type="i64" shape="1" offset="372080" size="8" />
			<output>
				<port id="0" precision="I64">
					<dim>1</dim>
				</port>
			</output>
		</layer>
		<layer id="197" name="__module.model.enc_p.encoder.attn_layers.0/aten::add/Add_1" type="Add" version="opset1">
			<data auto_broadcast="numpy" />
			<input>
				<port id="0" precision="I64">
					<dim>1</dim>
				</port>
				<port id="1" precision="I64">
					<dim>1</dim>
				</port>
			</input>
			<output>
				<port id="2" precision="I64" names="250,251">
					<dim>1</dim>
				</port>
			</output>
		</layer>
		<layer id="198" name="__module.model.enc_p.encoder.attn_layers.0/aten::mul/Multiply_1" type="Multiply" version="opset1">
			<data auto_broadcast="numpy" />
			<input>
				<port id="0" precision="I64" />
				<port id="1" precision="I64" />
			</input>
			<output>
				<port id="2" precision="I64" names="241,252" />
			</output>
		</layer>
		<layer id="199" name="Constant_612476" type="Const" version="opset1">
			<data element_type="i64" shape="" offset="372088" size="8" />
			<output>
				<port id="0" precision="I64" />
			</output>
		</layer>
		<layer id="200" name="__module.model.enc_p.encoder.attn_layers.0/aten::sub/Subtract_3" type="Add" version="opset1">
			<data auto_broadcast="numpy" />
			<input>
				<port id="0" precision="I64" />
				<port id="1" precision="I64" />
			</input>
			<output>
				<port id="2" precision="I64" names="253,254" />
			</output>
		</layer>
		<layer id="201" name="Constant_715373" type="Const" version="opset1">
			<data element_type="i64" shape="1" offset="372088" size="8" />
			<output>
				<port id="0" precision="I64">
					<dim>1</dim>
				</port>
			</output>
		</layer>
		<layer id="202" name="Reshape_639445" type="Reshape" version="opset1">
			<data special_zero="false" />
			<input>
				<port id="0" precision="I64" />
				<port id="1" precision="I64">
					<dim>1</dim>
				</port>
			</input>
			<output>
				<port id="2" precision="I64">
					<dim>1</dim>
				</port>
			</output>
		</layer>
		<layer id="203" name="__module.model.enc_p.encoder.attn_layers.0/prim::ListConstruct/Concat_3" type="Concat" version="opset1">
			<data axis="0" />
			<input>
				<port id="0" precision="I64">
					<dim>2</dim>
				</port>
				<port id="1" precision="I64">
					<dim>1</dim>
				</port>
				<port id="2" precision="I64">
					<dim>1</dim>
				</port>
			</input>
			<output>
				<port id="3" precision="I64" names="255">
					<dim>4</dim>
				</port>
			</output>
		</layer>
		<layer id="204" name="__module.model.enc_p.encoder.attn_layers.0/aten::view/Reshape_3" type="Reshape" version="opset1">
			<data special_zero="false" />
			<input>
				<port id="0" precision="FP32">
					<dim>1</dim>
					<dim>2</dim>
					<dim>-1</dim>
				</port>
				<port id="1" precision="I64">
					<dim>4</dim>
				</port>
			</input>
			<output>
				<port id="2" precision="FP32" names="256,259,260">
					<dim>1</dim>
					<dim>2</dim>
					<dim>-1</dim>
					<dim>-1</dim>
				</port>
			</output>
		</layer>
		<layer id="205" name="__module.model.enc_p.encoder.attn_layers.0/aten::slice/Reshape_16" type="Const" version="opset1">
			<data element_type="i64" shape="1" offset="372068" size="8" />
			<output>
				<port id="0" precision="I64">
					<dim>1</dim>
				</port>
			</output>
		</layer>
		<layer id="206" name="Concat_606981" type="Concat" version="opset1">
			<data axis="0" />
			<input>
				<port id="0" precision="I64">
					<dim>1</dim>
				</port>
				<port id="1" precision="I64">
					<dim>1</dim>
				</port>
			</input>
			<output>
				<port id="2" precision="I64">
					<dim>2</dim>
				</port>
			</output>
		</layer>
		<layer id="207" name="__module.model.enc_p.encoder.attn_layers.0/aten::slice/Reshape_21" type="Const" version="opset1">
			<data element_type="i64" shape="1" offset="452536" size="8" />
			<output>
				<port id="0" precision="I64">
					<dim>1</dim>
				</port>
			</output>
		</layer>
		<layer id="208" name="Concat_606982" type="Concat" version="opset1">
			<data axis="0" />
			<input>
				<port id="0" precision="I64">
					<dim>1</dim>
				</port>
				<port id="1" precision="I64">
					<dim>1</dim>
				</port>
			</input>
			<output>
				<port id="2" precision="I64">
					<dim>2</dim>
				</port>
			</output>
		</layer>
		<layer id="209" name="Constant_606986" type="Const" version="opset1">
			<data element_type="i64" shape="2" offset="452544" size="16" />
			<output>
				<port id="0" precision="I64">
					<dim>2</dim>
				</port>
			</output>
		</layer>
		<layer id="210" name="Constant_606985" type="Const" version="opset1">
			<data element_type="i64" shape="2" offset="452560" size="16" />
			<output>
				<port id="0" precision="I64">
					<dim>2</dim>
				</port>
			</output>
		</layer>
		<layer id="211" name="__module.model.enc_p.encoder.attn_layers.0/aten::slice/Slice_5" type="Slice" version="opset8">
			<input>
				<port id="0" precision="FP32">
					<dim>1</dim>
					<dim>2</dim>
					<dim>-1</dim>
					<dim>-1</dim>
				</port>
				<port id="1" precision="I64">
					<dim>2</dim>
				</port>
				<port id="2" precision="I64">
					<dim>2</dim>
				</port>
				<port id="3" precision="I64">
					<dim>2</dim>
				</port>
				<port id="4" precision="I64">
					<dim>2</dim>
				</port>
			</input>
			<output>
				<port id="5" precision="FP32" names="262,scores_local.1">
					<dim>1</dim>
					<dim>2</dim>
					<dim>-1</dim>
					<dim>-1</dim>
				</port>
			</output>
		</layer>
		<layer id="212" name="__module.model.enc_p.encoder.attn_layers.0/aten::add/Add_2" type="Add" version="opset1">
			<data auto_broadcast="numpy" />
			<input>
				<port id="0" precision="FP32">
					<dim>1</dim>
					<dim>2</dim>
					<dim>-1</dim>
					<dim>-1</dim>
				</port>
				<port id="1" precision="FP32">
					<dim>1</dim>
					<dim>2</dim>
					<dim>-1</dim>
					<dim>-1</dim>
				</port>
			</input>
			<output>
				<port id="2" precision="FP32" names="263,scores.3">
					<dim>1</dim>
					<dim>2</dim>
					<dim>-1</dim>
					<dim>-1</dim>
				</port>
			</output>
		</layer>
		<layer id="213" name="__module.model.enc_p.encoder.attn_layers.0/aten::masked_fill/Select" type="Select" version="opset1">
			<data auto_broadcast="numpy" />
			<input>
				<port id="0" precision="BOOL">
					<dim>1</dim>
					<dim>1</dim>
					<dim>-1</dim>
					<dim>-1</dim>
				</port>
				<port id="1" precision="FP32" />
				<port id="2" precision="FP32">
					<dim>1</dim>
					<dim>2</dim>
					<dim>-1</dim>
					<dim>-1</dim>
				</port>
			</input>
			<output>
				<port id="3" precision="FP32" names="265,input.5">
					<dim>1</dim>
					<dim>2</dim>
					<dim>-1</dim>
					<dim>-1</dim>
				</port>
			</output>
		</layer>
		<layer id="214" name="__module.model.enc_p.encoder.attn_layers.0/aten::softmax/Softmax" type="SoftMax" version="opset8">
			<data axis="-1" />
			<input>
				<port id="0" precision="FP32">
					<dim>1</dim>
					<dim>2</dim>
					<dim>-1</dim>
					<dim>-1</dim>
				</port>
			</input>
			<output>
				<port id="1" precision="FP32" names="266,input.7">
					<dim>1</dim>
					<dim>2</dim>
					<dim>-1</dim>
					<dim>-1</dim>
				</port>
			</output>
		</layer>
		<layer id="215" name="__module.model.enc_p.encoder.attn_layers.0.conv_v/aten::_convolution/Convolution/fq_input_0/input_low" type="Const" version="opset1">
			<data element_type="f32" shape="" offset="372100" size="4" />
			<output>
				<port id="0" precision="FP32" />
			</output>
		</layer>
		<layer id="216" name="__module.model.enc_p.encoder.attn_layers.0.conv_v/aten::_convolution/Convolution/fq_input_0/input_high" type="Const" version="opset1">
			<data element_type="f32" shape="" offset="372104" size="4" />
			<output>
				<port id="0" precision="FP32" />
			</output>
		</layer>
		<layer id="217" name="__module.model.enc_p.encoder.attn_layers.0.conv_v/aten::_convolution/Convolution/fq_input_0/output_low" type="Const" version="opset1">
			<data element_type="f32" shape="" offset="372100" size="4" />
			<output>
				<port id="0" precision="FP32" />
			</output>
		</layer>
		<layer id="218" name="__module.model.enc_p.encoder.attn_layers.0.conv_v/aten::_convolution/Convolution/fq_input_0/output_high" type="Const" version="opset1">
			<data element_type="f32" shape="" offset="372104" size="4" />
			<output>
				<port id="0" precision="FP32" />
			</output>
		</layer>
		<layer id="219" name="__module.model.enc_p.encoder.attn_layers.0.conv_v/aten::_convolution/Convolution/fq_input_0" type="FakeQuantize" version="opset1">
			<data levels="256" auto_broadcast="numpy" />
			<input>
				<port id="0" precision="FP32">
					<dim>1</dim>
					<dim>192</dim>
					<dim>-1</dim>
				</port>
				<port id="1" precision="FP32" />
				<port id="2" precision="FP32" />
				<port id="3" precision="FP32" />
				<port id="4" precision="FP32" />
			</input>
			<output>
				<port id="5" precision="FP32">
					<dim>1</dim>
					<dim>192</dim>
					<dim>-1</dim>
				</port>
			</output>
		</layer>
		<layer id="220" name="Constant_4290559" type="Const" version="opset1">
			<data element_type="i8" shape="192, 192, 1" offset="452576" size="36864" />
			<output>
				<port id="0" precision="I8">
					<dim>192</dim>
					<dim>192</dim>
					<dim>1</dim>
				</port>
			</output>
		</layer>
		<layer id="221" name="Convert_4290560" type="Convert" version="opset1">
			<data destination_type="f32" />
			<input>
				<port id="0" precision="I8">
					<dim>192</dim>
					<dim>192</dim>
					<dim>1</dim>
				</port>
			</input>
			<output>
				<port id="1" precision="FP32">
					<dim>192</dim>
					<dim>192</dim>
					<dim>1</dim>
				</port>
			</output>
		</layer>
		<layer id="222" name="Constant_4290561" type="Const" version="opset1">
			<data element_type="f32" shape="192, 1, 1" offset="489440" size="768" />
			<output>
				<port id="0" precision="FP32">
					<dim>192</dim>
					<dim>1</dim>
					<dim>1</dim>
				</port>
			</output>
		</layer>
		<layer id="223" name="__module.model.enc_p.encoder.attn_layers.0.conv_v/aten::_convolution/Convolution/fq_weights_1" type="Multiply" version="opset1">
			<data auto_broadcast="numpy" />
			<input>
				<port id="0" precision="FP32">
					<dim>192</dim>
					<dim>192</dim>
					<dim>1</dim>
				</port>
				<port id="1" precision="FP32">
					<dim>192</dim>
					<dim>1</dim>
					<dim>1</dim>
				</port>
			</input>
			<output>
				<port id="2" precision="FP32">
					<dim>192</dim>
					<dim>192</dim>
					<dim>1</dim>
				</port>
			</output>
		</layer>
		<layer id="224" name="__module.model.enc_p.encoder.attn_layers.0.conv_v/aten::_convolution/Convolution" type="Convolution" version="opset1">
			<data strides="1" dilations="1" pads_begin="0" pads_end="0" auto_pad="explicit" />
			<input>
				<port id="0" precision="FP32">
					<dim>1</dim>
					<dim>192</dim>
					<dim>-1</dim>
				</port>
				<port id="1" precision="FP32">
					<dim>192</dim>
					<dim>192</dim>
					<dim>1</dim>
				</port>
			</input>
			<output>
				<port id="2" precision="FP32">
					<dim>1</dim>
					<dim>192</dim>
					<dim>-1</dim>
				</port>
			</output>
		</layer>
		<layer id="225" name="__module.model.enc_p.encoder.attn_layers.0.conv_v/aten::_convolution/Reshape" type="Const" version="opset1">
			<data element_type="f32" shape="1, 192, 1" offset="490208" size="768" />
			<output>
				<port id="0" precision="FP32">
					<dim>1</dim>
					<dim>192</dim>
					<dim>1</dim>
				</port>
			</output>
		</layer>
		<layer id="226" name="__module.model.enc_p.encoder.attn_layers.0.conv_v/aten::_convolution/Add" type="Add" version="opset1">
			<data auto_broadcast="numpy" />
			<input>
				<port id="0" precision="FP32">
					<dim>1</dim>
					<dim>192</dim>
					<dim>-1</dim>
				</port>
				<port id="1" precision="FP32">
					<dim>1</dim>
					<dim>192</dim>
					<dim>1</dim>
				</port>
			</input>
			<output>
				<port id="2" precision="FP32" names="202,value.1">
					<dim>1</dim>
					<dim>192</dim>
					<dim>-1</dim>
				</port>
			</output>
		</layer>
		<layer id="227" name="Constant_652235" type="Const" version="opset1">
			<data element_type="i64" shape="4" offset="410508" size="32" />
			<output>
				<port id="0" precision="I64">
					<dim>4</dim>
				</port>
			</output>
		</layer>
		<layer id="228" name="__module.model.enc_p.encoder.attn_layers.0/aten::view/Reshape_4" type="Reshape" version="opset1">
			<data special_zero="true" />
			<input>
				<port id="0" precision="FP32">
					<dim>1</dim>
					<dim>192</dim>
					<dim>-1</dim>
				</port>
				<port id="1" precision="I64">
					<dim>4</dim>
				</port>
			</input>
			<output>
				<port id="2" precision="FP32" names="215">
					<dim>1</dim>
					<dim>2</dim>
					<dim>96</dim>
					<dim>-1</dim>
				</port>
			</output>
		</layer>
		<layer id="229" name="__module.model.enc_p.encoder.attn_layers.0/aten::matmul/MatMul_2" type="MatMul" version="opset1">
			<data transpose_a="false" transpose_b="true" />
			<input>
				<port id="0" precision="FP32">
					<dim>1</dim>
					<dim>2</dim>
					<dim>-1</dim>
					<dim>-1</dim>
				</port>
				<port id="1" precision="FP32">
					<dim>1</dim>
					<dim>2</dim>
					<dim>96</dim>
					<dim>-1</dim>
				</port>
			</input>
			<output>
				<port id="2" precision="FP32" names="268,output.1">
					<dim>1</dim>
					<dim>2</dim>
					<dim>-1</dim>
					<dim>96</dim>
				</port>
			</output>
		</layer>
		<layer id="230" name="__module.model.enc_p.encoder.attn_layers.0/aten::size/ShapeOf_7" type="ShapeOf" version="opset3">
			<data output_type="i64" />
			<input>
				<port id="0" precision="FP32">
					<dim>1</dim>
					<dim>2</dim>
					<dim>-1</dim>
					<dim>-1</dim>
				</port>
			</input>
			<output>
				<port id="1" precision="I64">
					<dim>4</dim>
				</port>
			</output>
		</layer>
		<layer id="231" name="Constant_652474" type="Const" version="opset1">
			<data element_type="i64" shape="1" offset="372060" size="8" />
			<output>
				<port id="0" precision="I64">
					<dim>1</dim>
				</port>
			</output>
		</layer>
		<layer id="232" name="Constant_639632" type="Const" version="opset1">
			<data element_type="i64" shape="" offset="372068" size="8" />
			<output>
				<port id="0" precision="I64" />
			</output>
		</layer>
		<layer id="233" name="Gather_639633" type="Gather" version="opset8">
			<data batch_dims="0" />
			<input>
				<port id="0" precision="I64">
					<dim>4</dim>
				</port>
				<port id="1" precision="I64">
					<dim>1</dim>
				</port>
				<port id="2" precision="I64" />
			</input>
			<output>
				<port id="3" precision="I64" names="271">
					<dim>1</dim>
				</port>
			</output>
		</layer>
		<layer id="234" name="Constant_652420" type="Const" version="opset1">
			<data element_type="i64" shape="1" offset="372088" size="8" />
			<output>
				<port id="0" precision="I64">
					<dim>1</dim>
				</port>
			</output>
		</layer>
		<layer id="235" name="__module.model.enc_p.encoder.attn_layers.0/aten::sub/Subtract_5" type="Add" version="opset1">
			<data auto_broadcast="numpy" />
			<input>
				<port id="0" precision="I64">
					<dim>1</dim>
				</port>
				<port id="1" precision="I64">
					<dim>1</dim>
				</port>
			</input>
			<output>
				<port id="2" precision="I64" names="273,274,278">
					<dim>1</dim>
				</port>
			</output>
		</layer>
		<layer id="236" name="Concat_166341" type="Concat" version="opset1">
			<data axis="0" />
			<input>
				<port id="0" precision="I64">
					<dim>1</dim>
				</port>
				<port id="1" precision="I64">
					<dim>1</dim>
				</port>
				<port id="2" precision="I64">
					<dim>1</dim>
				</port>
				<port id="3" precision="I64">
					<dim>1</dim>
				</port>
				<port id="4" precision="I64">
					<dim>1</dim>
				</port>
				<port id="5" precision="I64">
					<dim>1</dim>
				</port>
				<port id="6" precision="I64">
					<dim>1</dim>
				</port>
				<port id="7" precision="I64">
					<dim>1</dim>
				</port>
			</input>
			<output>
				<port id="8" precision="I64">
					<dim>8</dim>
				</port>
			</output>
		</layer>
		<layer id="237" name="__module.model.enc_p.encoder.attn_layers.0/aten::pad/Range_2" type="Const" version="opset1">
			<data element_type="i32" shape="4" offset="490976" size="16" />
			<output>
				<port id="0" precision="I32">
					<dim>4</dim>
				</port>
			</output>
		</layer>
		<layer id="238" name="Constant_166350" type="Const" version="opset1">
			<data element_type="i32" shape="" offset="0" size="4" />
			<output>
				<port id="0" precision="I32" />
			</output>
		</layer>
		<layer id="239" name="__module.model.enc_p.encoder.attn_layers.0/aten::pad/Gather_2" type="Gather" version="opset8">
			<data batch_dims="0" />
			<input>
				<port id="0" precision="I64">
					<dim>8</dim>
				</port>
				<port id="1" precision="I32">
					<dim>4</dim>
				</port>
				<port id="2" precision="I32" />
			</input>
			<output>
				<port id="3" precision="I64">
					<dim>4</dim>
				</port>
			</output>
		</layer>
		<layer id="240" name="__module.model.enc_p.encoder.attn_layers.0/aten::pad/Range_4_2" type="Const" version="opset1">
			<data element_type="i32" shape="4" offset="490992" size="16" />
			<output>
				<port id="0" precision="I32">
					<dim>4</dim>
				</port>
			</output>
		</layer>
		<layer id="241" name="Constant_166368" type="Const" version="opset1">
			<data element_type="i32" shape="" offset="0" size="4" />
			<output>
				<port id="0" precision="I32" />
			</output>
		</layer>
		<layer id="242" name="__module.model.enc_p.encoder.attn_layers.0/aten::pad/Gather_5_2" type="Gather" version="opset8">
			<data batch_dims="0" />
			<input>
				<port id="0" precision="I64">
					<dim>8</dim>
				</port>
				<port id="1" precision="I32">
					<dim>4</dim>
				</port>
				<port id="2" precision="I32" />
			</input>
			<output>
				<port id="3" precision="I64">
					<dim>4</dim>
				</port>
			</output>
		</layer>
		<layer id="243" name="__module.model.enc_p.encoder.attn_layers.0/aten::pad/ConvertLike_11_2" type="Const" version="opset1">
			<data element_type="f32" shape="" offset="0" size="4" />
			<output>
				<port id="0" precision="FP32" />
			</output>
		</layer>
		<layer id="244" name="__module.model.enc_p.encoder.attn_layers.0/aten::pad_2" type="Pad" version="opset1">
			<data pad_mode="constant" />
			<input>
				<port id="0" precision="FP32">
					<dim>1</dim>
					<dim>2</dim>
					<dim>-1</dim>
					<dim>-1</dim>
				</port>
				<port id="1" precision="I64">
					<dim>4</dim>
				</port>
				<port id="2" precision="I64">
					<dim>4</dim>
				</port>
				<port id="3" precision="FP32" />
			</input>
			<output>
				<port id="4" precision="FP32" names="276,x.15">
					<dim>1</dim>
					<dim>2</dim>
					<dim>-1</dim>
					<dim>-1</dim>
				</port>
			</output>
		</layer>
		<layer id="245" name="Constant_652236" type="Const" version="opset1">
			<data element_type="i64" shape="3" offset="452496" size="24" />
			<output>
				<port id="0" precision="I64">
					<dim>3</dim>
				</port>
			</output>
		</layer>
		<layer id="246" name="__module.model.enc_p.encoder.attn_layers.0/aten::view/Reshape_5" type="Reshape" version="opset1">
			<data special_zero="true" />
			<input>
				<port id="0" precision="FP32">
					<dim>1</dim>
					<dim>2</dim>
					<dim>-1</dim>
					<dim>-1</dim>
				</port>
				<port id="1" precision="I64">
					<dim>3</dim>
				</port>
			</input>
			<output>
				<port id="2" precision="FP32" names="283,input.9">
					<dim>1</dim>
					<dim>2</dim>
					<dim>-1</dim>
				</port>
			</output>
		</layer>
		<layer id="247" name="Concat_166540" type="Concat" version="opset1">
			<data axis="0" />
			<input>
				<port id="0" precision="I64">
					<dim>1</dim>
				</port>
				<port id="1" precision="I64">
					<dim>1</dim>
				</port>
				<port id="2" precision="I64">
					<dim>1</dim>
				</port>
				<port id="3" precision="I64">
					<dim>1</dim>
				</port>
				<port id="4" precision="I64">
					<dim>1</dim>
				</port>
				<port id="5" precision="I64">
					<dim>1</dim>
				</port>
			</input>
			<output>
				<port id="6" precision="I64">
					<dim>6</dim>
				</port>
			</output>
		</layer>
		<layer id="248" name="__module.model.enc_p.encoder.attn_layers.0/aten::pad/Range_3" type="Const" version="opset1">
			<data element_type="i32" shape="3" offset="452440" size="12" />
			<output>
				<port id="0" precision="I32">
					<dim>3</dim>
				</port>
			</output>
		</layer>
		<layer id="249" name="Constant_166549" type="Const" version="opset1">
			<data element_type="i32" shape="" offset="0" size="4" />
			<output>
				<port id="0" precision="I32" />
			</output>
		</layer>
		<layer id="250" name="__module.model.enc_p.encoder.attn_layers.0/aten::pad/Gather_3" type="Gather" version="opset8">
			<data batch_dims="0" />
			<input>
				<port id="0" precision="I64">
					<dim>6</dim>
				</port>
				<port id="1" precision="I32">
					<dim>3</dim>
				</port>
				<port id="2" precision="I32" />
			</input>
			<output>
				<port id="3" precision="I64">
					<dim>3</dim>
				</port>
			</output>
		</layer>
		<layer id="251" name="__module.model.enc_p.encoder.attn_layers.0/aten::pad/Range_4_3" type="Const" version="opset1">
			<data element_type="i32" shape="3" offset="452452" size="12" />
			<output>
				<port id="0" precision="I32">
					<dim>3</dim>
				</port>
			</output>
		</layer>
		<layer id="252" name="Constant_166567" type="Const" version="opset1">
			<data element_type="i32" shape="" offset="0" size="4" />
			<output>
				<port id="0" precision="I32" />
			</output>
		</layer>
		<layer id="253" name="__module.model.enc_p.encoder.attn_layers.0/aten::pad/Gather_5_3" type="Gather" version="opset8">
			<data batch_dims="0" />
			<input>
				<port id="0" precision="I64">
					<dim>6</dim>
				</port>
				<port id="1" precision="I32">
					<dim>3</dim>
				</port>
				<port id="2" precision="I32" />
			</input>
			<output>
				<port id="3" precision="I64">
					<dim>3</dim>
				</port>
			</output>
		</layer>
		<layer id="254" name="__module.model.enc_p.encoder.attn_layers.0/aten::pad/ConvertLike_11_3" type="Const" version="opset1">
			<data element_type="f32" shape="" offset="0" size="4" />
			<output>
				<port id="0" precision="FP32" />
			</output>
		</layer>
		<layer id="255" name="__module.model.enc_p.encoder.attn_layers.0/aten::pad_3" type="Pad" version="opset1">
			<data pad_mode="constant" />
			<input>
				<port id="0" precision="FP32">
					<dim>1</dim>
					<dim>2</dim>
					<dim>-1</dim>
				</port>
				<port id="1" precision="I64">
					<dim>3</dim>
				</port>
				<port id="2" precision="I64">
					<dim>3</dim>
				</port>
				<port id="3" precision="FP32" />
			</input>
			<output>
				<port id="4" precision="FP32" names="285,x_flat.3">
					<dim>1</dim>
					<dim>2</dim>
					<dim>-1</dim>
				</port>
			</output>
		</layer>
		<layer id="256" name="Constant_652641" type="Const" version="opset1">
			<data element_type="i64" shape="3" offset="491008" size="24" />
			<output>
				<port id="0" precision="I64">
					<dim>3</dim>
				</port>
			</output>
		</layer>
		<layer id="257" name="Constant_652642" type="Const" version="opset1">
			<data element_type="i64" shape="" offset="372068" size="8" />
			<output>
				<port id="0" precision="I64" />
			</output>
		</layer>
		<layer id="258" name="Gather_652643" type="Gather" version="opset8">
			<data batch_dims="0" />
			<input>
				<port id="0" precision="I64">
					<dim>4</dim>
				</port>
				<port id="1" precision="I64">
					<dim>3</dim>
				</port>
				<port id="2" precision="I64" />
			</input>
			<output>
				<port id="3" precision="I64">
					<dim>3</dim>
				</port>
			</output>
		</layer>
		<layer id="259" name="Constant_638992" type="Const" version="opset1">
			<data element_type="i64" shape="1" offset="372060" size="8" />
			<output>
				<port id="0" precision="I64">
					<dim>1</dim>
				</port>
			</output>
		</layer>
		<layer id="260" name="__module.model.enc_p.encoder.attn_layers.0/aten::mul/Multiply_5" type="Multiply" version="opset1">
			<data auto_broadcast="numpy" />
			<input>
				<port id="0" precision="I64">
					<dim>1</dim>
				</port>
				<port id="1" precision="I64">
					<dim>1</dim>
				</port>
			</input>
			<output>
				<port id="2" precision="I64" names="286,287">
					<dim>1</dim>
				</port>
			</output>
		</layer>
		<layer id="261" name="__module.model.enc_p.encoder.attn_layers.0/prim::ListConstruct/Concat_6" type="Concat" version="opset1">
			<data axis="0" />
			<input>
				<port id="0" precision="I64">
					<dim>3</dim>
				</port>
				<port id="1" precision="I64">
					<dim>1</dim>
				</port>
			</input>
			<output>
				<port id="2" precision="I64" names="288">
					<dim>4</dim>
				</port>
			</output>
		</layer>
		<layer id="262" name="__module.model.enc_p.encoder.attn_layers.0/aten::view/Reshape_6" type="Reshape" version="opset1">
			<data special_zero="false" />
			<input>
				<port id="0" precision="FP32">
					<dim>1</dim>
					<dim>2</dim>
					<dim>-1</dim>
				</port>
				<port id="1" precision="I64">
					<dim>4</dim>
				</port>
			</input>
			<output>
				<port id="2" precision="FP32" names="289,290,291,292">
					<dim>1</dim>
					<dim>2</dim>
					<dim>-1</dim>
					<dim>-1</dim>
				</port>
			</output>
		</layer>
		<layer id="263" name="__module.model.enc_p.encoder.attn_layers.0/aten::slice/Reshape_36" type="Const" version="opset1">
			<data element_type="i64" shape="1" offset="372080" size="8" />
			<output>
				<port id="0" precision="I64">
					<dim>1</dim>
				</port>
			</output>
		</layer>
		<layer id="264" name="__module.model.enc_p.encoder.attn_layers.0/aten::slice/Reshape_37" type="Const" version="opset1">
			<data element_type="i64" shape="1" offset="452536" size="8" />
			<output>
				<port id="0" precision="I64">
					<dim>1</dim>
				</port>
			</output>
		</layer>
		<layer id="265" name="__module.model.enc_p.encoder.attn_layers.0/aten::slice/Reshape_38" type="Const" version="opset1">
			<data element_type="i64" shape="1" offset="372080" size="8" />
			<output>
				<port id="0" precision="I64">
					<dim>1</dim>
				</port>
			</output>
		</layer>
		<layer id="266" name="__module.model.enc_p.encoder.attn_layers.0/aten::slice/Reshape_39" type="Const" version="opset1">
			<data element_type="i64" shape="1" offset="491032" size="8" />
			<output>
				<port id="0" precision="I64">
					<dim>1</dim>
				</port>
			</output>
		</layer>
		<layer id="267" name="__module.model.enc_p.encoder.attn_layers.0/aten::slice/Slice_9" type="Slice" version="opset8">
			<input>
				<port id="0" precision="FP32">
					<dim>1</dim>
					<dim>2</dim>
					<dim>-1</dim>
					<dim>-1</dim>
				</port>
				<port id="1" precision="I64">
					<dim>1</dim>
				</port>
				<port id="2" precision="I64">
					<dim>1</dim>
				</port>
				<port id="3" precision="I64">
					<dim>1</dim>
				</port>
				<port id="4" precision="I64">
					<dim>1</dim>
				</port>
			</input>
			<output>
				<port id="5" precision="FP32" names="293">
					<dim>1</dim>
					<dim>2</dim>
					<dim>-1</dim>
					<dim>-1</dim>
				</port>
			</output>
		</layer>
		<layer id="268" name="__module.model.enc_p.encoder.attn_layers.0/aten::slice/Slice_9/fq_output_0/input_low" type="Const" version="opset1">
			<data element_type="f32" shape="" offset="0" size="4" />
			<output>
				<port id="0" precision="FP32" />
			</output>
		</layer>
		<layer id="269" name="__module.model.enc_p.encoder.attn_layers.0/aten::slice/Slice_9/fq_output_0/input_high" type="Const" version="opset1">
			<data element_type="f32" shape="" offset="491040" size="4" />
			<output>
				<port id="0" precision="FP32" />
			</output>
		</layer>
		<layer id="270" name="__module.model.enc_p.encoder.attn_layers.0/aten::slice/Slice_9/fq_output_0/output_low" type="Const" version="opset1">
			<data element_type="f32" shape="" offset="0" size="4" />
			<output>
				<port id="0" precision="FP32" />
			</output>
		</layer>
		<layer id="271" name="__module.model.enc_p.encoder.attn_layers.0/aten::slice/Slice_9/fq_output_0/output_high" type="Const" version="opset1">
			<data element_type="f32" shape="" offset="491040" size="4" />
			<output>
				<port id="0" precision="FP32" />
			</output>
		</layer>
		<layer id="272" name="__module.model.enc_p.encoder.attn_layers.0/aten::slice/Slice_9/fq_output_0" type="FakeQuantize" version="opset1">
			<data levels="256" auto_broadcast="numpy" />
			<input>
				<port id="0" precision="FP32">
					<dim>1</dim>
					<dim>2</dim>
					<dim>-1</dim>
					<dim>-1</dim>
				</port>
				<port id="1" precision="FP32" />
				<port id="2" precision="FP32" />
				<port id="3" precision="FP32" />
				<port id="4" precision="FP32" />
			</input>
			<output>
				<port id="5" precision="FP32">
					<dim>1</dim>
					<dim>2</dim>
					<dim>-1</dim>
					<dim>-1</dim>
				</port>
			</output>
		</layer>
		<layer id="273" name="self.model.enc_p.encoder.attn_layers.0.emb_rel_v" type="Const" version="opset1">
			<data element_type="f32" shape="1, 9, 96" offset="491044" size="3456" />
			<output>
				<port id="0" precision="FP32" names="self.model.enc_p.encoder.attn_layers.0.emb_rel_v">
					<dim>1</dim>
					<dim>9</dim>
					<dim>96</dim>
				</port>
			</output>
		</layer>
		<layer id="274" name="__module.model.enc_p.encoder.attn_layers.0/aten::pad/ConvertLike_11_4" type="Const" version="opset1">
			<data element_type="f32" shape="" offset="0" size="4" />
			<output>
				<port id="0" precision="FP32" />
			</output>
		</layer>
		<layer id="275" name="__module.model.enc_p.encoder.attn_layers.0/aten::pad_4" type="Pad" version="opset1">
			<data pad_mode="constant" />
			<input>
				<port id="0" precision="FP32">
					<dim>1</dim>
					<dim>9</dim>
					<dim>96</dim>
				</port>
				<port id="1" precision="I64">
					<dim>3</dim>
				</port>
				<port id="2" precision="I64">
					<dim>3</dim>
				</port>
				<port id="3" precision="FP32" />
			</input>
			<output>
				<port id="4" precision="FP32" names="302,303,padded_relative_embeddings.3">
					<dim>1</dim>
					<dim>-1</dim>
					<dim>96</dim>
				</port>
			</output>
		</layer>
		<layer id="276" name="__module.model.enc_p.encoder.attn_layers.0/aten::slice/Reshape_44" type="Const" version="opset1">
			<data element_type="i64" shape="1" offset="372068" size="8" />
			<output>
				<port id="0" precision="I64">
					<dim>1</dim>
				</port>
			</output>
		</layer>
		<layer id="277" name="__module.model.enc_p.encoder.attn_layers.0/aten::slice/Reshape_46" type="Const" version="opset1">
			<data element_type="i64" shape="1" offset="372080" size="8" />
			<output>
				<port id="0" precision="I64">
					<dim>1</dim>
				</port>
			</output>
		</layer>
		<layer id="278" name="__module.model.enc_p.encoder.attn_layers.0/aten::slice/Reshape_47" type="Const" version="opset1">
			<data element_type="i64" shape="1" offset="372080" size="8" />
			<output>
				<port id="0" precision="I64">
					<dim>1</dim>
				</port>
			</output>
		</layer>
		<layer id="279" name="__module.model.enc_p.encoder.attn_layers.0/aten::slice/Slice_11" type="Slice" version="opset8">
			<input>
				<port id="0" precision="FP32">
					<dim>1</dim>
					<dim>-1</dim>
					<dim>96</dim>
				</port>
				<port id="1" precision="I64">
					<dim>1</dim>
				</port>
				<port id="2" precision="I64">
					<dim>1</dim>
				</port>
				<port id="3" precision="I64">
					<dim>1</dim>
				</port>
				<port id="4" precision="I64">
					<dim>1</dim>
				</port>
			</input>
			<output>
				<port id="5" precision="FP32" names="304,y.3">
					<dim>1</dim>
					<dim>-1</dim>
					<dim>96</dim>
				</port>
			</output>
		</layer>
		<layer id="280" name="__module.model.enc_p.encoder.attn_layers.0/aten::unsqueeze/Unsqueeze_1" type="Unsqueeze" version="opset1">
			<input>
				<port id="0" precision="FP32">
					<dim>1</dim>
					<dim>-1</dim>
					<dim>96</dim>
				</port>
				<port id="1" precision="I64" />
			</input>
			<output>
				<port id="2" precision="FP32" names="305">
					<dim>1</dim>
					<dim>1</dim>
					<dim>-1</dim>
					<dim>96</dim>
				</port>
			</output>
		</layer>
		<layer id="281" name="__module.model.enc_p.encoder.attn_layers.0/aten::matmul/MatMul_3" type="MatMul" version="opset1">
			<data transpose_a="false" transpose_b="false" />
			<input>
				<port id="0" precision="FP32">
					<dim>1</dim>
					<dim>2</dim>
					<dim>-1</dim>
					<dim>-1</dim>
				</port>
				<port id="1" precision="FP32">
					<dim>1</dim>
					<dim>1</dim>
					<dim>-1</dim>
					<dim>96</dim>
				</port>
			</input>
			<output>
				<port id="2" precision="FP32" names="306">
					<dim>1</dim>
					<dim>2</dim>
					<dim>-1</dim>
					<dim>96</dim>
				</port>
			</output>
		</layer>
		<layer id="282" name="__module.model.enc_p.encoder.attn_layers.0/aten::add/Add_5" type="Add" version="opset1">
			<data auto_broadcast="numpy" />
			<input>
				<port id="0" precision="FP32">
					<dim>1</dim>
					<dim>2</dim>
					<dim>-1</dim>
					<dim>96</dim>
				</port>
				<port id="1" precision="FP32">
					<dim>1</dim>
					<dim>2</dim>
					<dim>-1</dim>
					<dim>96</dim>
				</port>
			</input>
			<output>
				<port id="2" precision="FP32" names="307,output.3">
					<dim>1</dim>
					<dim>2</dim>
					<dim>-1</dim>
					<dim>96</dim>
				</port>
			</output>
		</layer>
		<layer id="283" name="__module.model.enc_p.encoder.attn_layers.0/aten::add/Add_5/fq_output_0/input_low" type="Const" version="opset1">
			<data element_type="f32" shape="" offset="494500" size="4" />
			<output>
				<port id="0" precision="FP32" />
			</output>
		</layer>
		<layer id="284" name="__module.model.enc_p.encoder.attn_layers.0/aten::add/Add_5/fq_output_0/input_high" type="Const" version="opset1">
			<data element_type="f32" shape="" offset="494504" size="4" />
			<output>
				<port id="0" precision="FP32" />
			</output>
		</layer>
		<layer id="285" name="__module.model.enc_p.encoder.attn_layers.0/aten::add/Add_5/fq_output_0/output_low" type="Const" version="opset1">
			<data element_type="f32" shape="" offset="494500" size="4" />
			<output>
				<port id="0" precision="FP32" />
			</output>
		</layer>
		<layer id="286" name="__module.model.enc_p.encoder.attn_layers.0/aten::add/Add_5/fq_output_0/output_high" type="Const" version="opset1">
			<data element_type="f32" shape="" offset="494504" size="4" />
			<output>
				<port id="0" precision="FP32" />
			</output>
		</layer>
		<layer id="287" name="__module.model.enc_p.encoder.attn_layers.0/aten::add/Add_5/fq_output_0" type="FakeQuantize" version="opset1">
			<data levels="256" auto_broadcast="numpy" />
			<input>
				<port id="0" precision="FP32">
					<dim>1</dim>
					<dim>2</dim>
					<dim>-1</dim>
					<dim>96</dim>
				</port>
				<port id="1" precision="FP32" />
				<port id="2" precision="FP32" />
				<port id="3" precision="FP32" />
				<port id="4" precision="FP32" />
			</input>
			<output>
				<port id="5" precision="FP32">
					<dim>1</dim>
					<dim>2</dim>
					<dim>-1</dim>
					<dim>96</dim>
				</port>
			</output>
		</layer>
		<layer id="288" name="__module.model.enc_p.encoder.attn_layers.0/aten::transpose/ScatterElementsUpdate_5" type="Const" version="opset1">
			<data element_type="i32" shape="4" offset="410540" size="16" />
			<output>
				<port id="0" precision="I32">
					<dim>4</dim>
				</port>
			</output>
		</layer>
		<layer id="289" name="__module.model.enc_p.encoder.attn_layers.0/aten::transpose/Transpose_5" type="Transpose" version="opset1">
			<input>
				<port id="0" precision="FP32">
					<dim>1</dim>
					<dim>2</dim>
					<dim>-1</dim>
					<dim>96</dim>
				</port>
				<port id="1" precision="I32">
					<dim>4</dim>
				</port>
			</input>
			<output>
				<port id="2" precision="FP32" names="308">
					<dim>1</dim>
					<dim>2</dim>
					<dim>96</dim>
					<dim>-1</dim>
				</port>
			</output>
		</layer>
		<layer id="290" name="Constant_639239" type="Const" version="opset1">
			<data element_type="i64" shape="1" offset="372068" size="8" />
			<output>
				<port id="0" precision="I64">
					<dim>1</dim>
				</port>
			</output>
		</layer>
		<layer id="291" name="Constant_639240" type="Const" version="opset1">
			<data element_type="i64" shape="" offset="372068" size="8" />
			<output>
				<port id="0" precision="I64" />
			</output>
		</layer>
		<layer id="292" name="Gather_639241" type="Gather" version="opset8">
			<data batch_dims="0" />
			<input>
				<port id="0" precision="I64">
					<dim>3</dim>
				</port>
				<port id="1" precision="I64">
					<dim>1</dim>
				</port>
				<port id="2" precision="I64" />
			</input>
			<output>
				<port id="3" precision="I64" names="203">
					<dim>1</dim>
				</port>
			</output>
		</layer>
		<layer id="293" name="__module.model.enc_p.encoder.attn_layers.0/prim::ListConstruct/Reshape_0_7" type="Const" version="opset1">
			<data element_type="i64" shape="1" offset="494508" size="8" />
			<output>
				<port id="0" precision="I64">
					<dim>1</dim>
				</port>
			</output>
		</layer>
		<layer id="294" name="__module.model.enc_p.encoder.attn_layers.0/prim::ListConstruct/Concat_7" type="Concat" version="opset1">
			<data axis="0" />
			<input>
				<port id="0" precision="I64">
					<dim>1</dim>
				</port>
				<port id="1" precision="I64">
					<dim>1</dim>
				</port>
				<port id="2" precision="I64">
					<dim>1</dim>
				</port>
			</input>
			<output>
				<port id="3" precision="I64" names="310">
					<dim>3</dim>
				</port>
			</output>
		</layer>
		<layer id="295" name="__module.model.enc_p.encoder.attn_layers.0/aten::view/Reshape_7" type="Reshape" version="opset1">
			<data special_zero="false" />
			<input>
				<port id="0" precision="FP32">
					<dim>1</dim>
					<dim>2</dim>
					<dim>96</dim>
					<dim>-1</dim>
				</port>
				<port id="1" precision="I64">
					<dim>3</dim>
				</port>
			</input>
			<output>
				<port id="2" precision="FP32" names="311">
					<dim>1</dim>
					<dim>192</dim>
					<dim>-1</dim>
				</port>
			</output>
		</layer>
		<layer id="296" name="Constant_4290563" type="Const" version="opset1">
			<data element_type="i8" shape="192, 192, 1" offset="494516" size="36864" />
			<output>
				<port id="0" precision="I8">
					<dim>192</dim>
					<dim>192</dim>
					<dim>1</dim>
				</port>
			</output>
		</layer>
		<layer id="297" name="Convert_4290564" type="Convert" version="opset1">
			<data destination_type="f32" />
			<input>
				<port id="0" precision="I8">
					<dim>192</dim>
					<dim>192</dim>
					<dim>1</dim>
				</port>
			</input>
			<output>
				<port id="1" precision="FP32">
					<dim>192</dim>
					<dim>192</dim>
					<dim>1</dim>
				</port>
			</output>
		</layer>
		<layer id="298" name="Constant_4290565" type="Const" version="opset1">
			<data element_type="f32" shape="192, 1, 1" offset="531380" size="768" />
			<output>
				<port id="0" precision="FP32">
					<dim>192</dim>
					<dim>1</dim>
					<dim>1</dim>
				</port>
			</output>
		</layer>
		<layer id="299" name="__module.model.enc_p.encoder.attn_layers.0.conv_o/aten::_convolution/Convolution/fq_weights_1" type="Multiply" version="opset1">
			<data auto_broadcast="numpy" />
			<input>
				<port id="0" precision="FP32">
					<dim>192</dim>
					<dim>192</dim>
					<dim>1</dim>
				</port>
				<port id="1" precision="FP32">
					<dim>192</dim>
					<dim>1</dim>
					<dim>1</dim>
				</port>
			</input>
			<output>
				<port id="2" precision="FP32">
					<dim>192</dim>
					<dim>192</dim>
					<dim>1</dim>
				</port>
			</output>
		</layer>
		<layer id="300" name="__module.model.enc_p.encoder.attn_layers.0.conv_o/aten::_convolution/Convolution" type="Convolution" version="opset1">
			<data strides="1" dilations="1" pads_begin="0" pads_end="0" auto_pad="explicit" />
			<input>
				<port id="0" precision="FP32">
					<dim>1</dim>
					<dim>192</dim>
					<dim>-1</dim>
				</port>
				<port id="1" precision="FP32">
					<dim>192</dim>
					<dim>192</dim>
					<dim>1</dim>
				</port>
			</input>
			<output>
				<port id="2" precision="FP32">
					<dim>1</dim>
					<dim>192</dim>
					<dim>-1</dim>
				</port>
			</output>
		</layer>
		<layer id="301" name="__module.model.enc_p.encoder.attn_layers.0.conv_o/aten::_convolution/Reshape" type="Const" version="opset1">
			<data element_type="f32" shape="1, 192, 1" offset="532148" size="768" />
			<output>
				<port id="0" precision="FP32">
					<dim>1</dim>
					<dim>192</dim>
					<dim>1</dim>
				</port>
			</output>
		</layer>
		<layer id="302" name="__module.model.enc_p.encoder.attn_layers.0.conv_o/aten::_convolution/Add" type="Add" version="opset1">
			<data auto_broadcast="numpy" />
			<input>
				<port id="0" precision="FP32">
					<dim>1</dim>
					<dim>192</dim>
					<dim>-1</dim>
				</port>
				<port id="1" precision="FP32">
					<dim>1</dim>
					<dim>192</dim>
					<dim>1</dim>
				</port>
			</input>
			<output>
				<port id="2" precision="FP32" names="318,input.13">
					<dim>1</dim>
					<dim>192</dim>
					<dim>-1</dim>
				</port>
			</output>
		</layer>
		<layer id="303" name="__module.model.enc_p.encoder/aten::add/Add" type="Add" version="opset1">
			<data auto_broadcast="numpy" />
			<input>
				<port id="0" precision="FP32">
					<dim>1</dim>
					<dim>192</dim>
					<dim>-1</dim>
				</port>
				<port id="1" precision="FP32">
					<dim>1</dim>
					<dim>192</dim>
					<dim>-1</dim>
				</port>
			</input>
			<output>
				<port id="2" precision="FP32" names="320,x.19">
					<dim>1</dim>
					<dim>192</dim>
					<dim>-1</dim>
				</port>
			</output>
		</layer>
		<layer id="304" name="__module.model.enc_p.encoder.norm_layers_1.0/aten::transpose/ScatterElementsUpdate" type="Const" version="opset1">
			<data element_type="i32" shape="3" offset="223048" size="12" />
			<output>
				<port id="0" precision="I32">
					<dim>3</dim>
				</port>
			</output>
		</layer>
		<layer id="305" name="__module.model.enc_p.encoder.norm_layers_1.0/aten::transpose/Transpose" type="Transpose" version="opset1">
			<input>
				<port id="0" precision="FP32">
					<dim>1</dim>
					<dim>192</dim>
					<dim>-1</dim>
				</port>
				<port id="1" precision="I32">
					<dim>3</dim>
				</port>
			</input>
			<output>
				<port id="2" precision="FP32" names="323">
					<dim>1</dim>
					<dim>-1</dim>
					<dim>192</dim>
				</port>
			</output>
		</layer>
		<layer id="306" name="__module.model.enc_p.encoder.norm_layers_1.0/aten::layer_norm/Multiply" type="Const" version="opset1">
			<data element_type="i32" shape="1" offset="532916" size="4" />
			<output>
				<port id="0" precision="I32">
					<dim>1</dim>
				</port>
			</output>
		</layer>
		<layer id="307" name="__module.model.enc_p.encoder.norm_layers_1.0/aten::layer_norm/MVN" type="MVN" version="opset6">
			<data eps="9.9999997473787516e-06" normalize_variance="true" eps_mode="INSIDE_SQRT" />
			<input>
				<port id="0" precision="FP32">
					<dim>1</dim>
					<dim>-1</dim>
					<dim>192</dim>
				</port>
				<port id="1" precision="I32">
					<dim>1</dim>
				</port>
			</input>
			<output>
				<port id="2" precision="FP32">
					<dim>1</dim>
					<dim>-1</dim>
					<dim>192</dim>
				</port>
			</output>
		</layer>
		<layer id="308" name="Constant_614755" type="Const" version="opset1">
			<data element_type="f32" shape="1, 1, 192" offset="532920" size="768" />
			<output>
				<port id="0" precision="FP32">
					<dim>1</dim>
					<dim>1</dim>
					<dim>192</dim>
				</port>
			</output>
		</layer>
		<layer id="309" name="__module.model.enc_p.encoder.norm_layers_1.0/aten::layer_norm/Multiply_1" type="Multiply" version="opset1">
			<data auto_broadcast="numpy" />
			<input>
				<port id="0" precision="FP32">
					<dim>1</dim>
					<dim>-1</dim>
					<dim>192</dim>
				</port>
				<port id="1" precision="FP32">
					<dim>1</dim>
					<dim>1</dim>
					<dim>192</dim>
				</port>
			</input>
			<output>
				<port id="2" precision="FP32">
					<dim>1</dim>
					<dim>-1</dim>
					<dim>192</dim>
				</port>
			</output>
		</layer>
		<layer id="310" name="Constant_614756" type="Const" version="opset1">
			<data element_type="f32" shape="1, 1, 192" offset="533688" size="768" />
			<output>
				<port id="0" precision="FP32">
					<dim>1</dim>
					<dim>1</dim>
					<dim>192</dim>
				</port>
			</output>
		</layer>
		<layer id="311" name="__module.model.enc_p.encoder.norm_layers_1.0/aten::layer_norm/Add" type="Add" version="opset1">
			<data auto_broadcast="numpy" />
			<input>
				<port id="0" precision="FP32">
					<dim>1</dim>
					<dim>-1</dim>
					<dim>192</dim>
				</port>
				<port id="1" precision="FP32">
					<dim>1</dim>
					<dim>1</dim>
					<dim>192</dim>
				</port>
			</input>
			<output>
				<port id="2" precision="FP32" names="325,x.21">
					<dim>1</dim>
					<dim>-1</dim>
					<dim>192</dim>
				</port>
			</output>
		</layer>
		<layer id="312" name="__module.model.enc_p.encoder.norm_layers_1.0/aten::transpose/ScatterElementsUpdate_1" type="Const" version="opset1">
			<data element_type="i32" shape="3" offset="223048" size="12" />
			<output>
				<port id="0" precision="I32">
					<dim>3</dim>
				</port>
			</output>
		</layer>
		<layer id="313" name="__module.model.enc_p.encoder.norm_layers_1.0/aten::transpose/Transpose_1" type="Transpose" version="opset1">
			<input>
				<port id="0" precision="FP32">
					<dim>1</dim>
					<dim>-1</dim>
					<dim>192</dim>
				</port>
				<port id="1" precision="I32">
					<dim>3</dim>
				</port>
			</input>
			<output>
				<port id="2" precision="FP32" names="326,x.23">
					<dim>1</dim>
					<dim>192</dim>
					<dim>-1</dim>
				</port>
			</output>
		</layer>
		<layer id="314" name="__module.model.enc_p.encoder.ffn_layers.0/aten::mul/Multiply" type="Multiply" version="opset1">
			<data auto_broadcast="numpy" />
			<input>
				<port id="0" precision="FP32">
					<dim>1</dim>
					<dim>192</dim>
					<dim>-1</dim>
				</port>
				<port id="1" precision="FP32">
					<dim>1</dim>
					<dim>1</dim>
					<dim>-1</dim>
				</port>
			</input>
			<output>
				<port id="2" precision="FP32" names="329,input.15">
					<dim>1</dim>
					<dim>192</dim>
					<dim>-1</dim>
				</port>
			</output>
		</layer>
		<layer id="315" name="__module.model.enc_p.encoder.ffn_layers.0/aten::mul/Multiply/fq_output_0/input_low" type="Const" version="opset1">
			<data element_type="f32" shape="" offset="534456" size="4" />
			<output>
				<port id="0" precision="FP32" />
			</output>
		</layer>
		<layer id="316" name="__module.model.enc_p.encoder.ffn_layers.0/aten::mul/Multiply/fq_output_0/input_high" type="Const" version="opset1">
			<data element_type="f32" shape="" offset="534460" size="4" />
			<output>
				<port id="0" precision="FP32" />
			</output>
		</layer>
		<layer id="317" name="__module.model.enc_p.encoder.ffn_layers.0/aten::mul/Multiply/fq_output_0/output_low" type="Const" version="opset1">
			<data element_type="f32" shape="" offset="534456" size="4" />
			<output>
				<port id="0" precision="FP32" />
			</output>
		</layer>
		<layer id="318" name="__module.model.enc_p.encoder.ffn_layers.0/aten::mul/Multiply/fq_output_0/output_high" type="Const" version="opset1">
			<data element_type="f32" shape="" offset="534460" size="4" />
			<output>
				<port id="0" precision="FP32" />
			</output>
		</layer>
		<layer id="319" name="__module.model.enc_p.encoder.ffn_layers.0/aten::mul/Multiply/fq_output_0" type="FakeQuantize" version="opset1">
			<data levels="256" auto_broadcast="numpy" />
			<input>
				<port id="0" precision="FP32">
					<dim>1</dim>
					<dim>192</dim>
					<dim>-1</dim>
				</port>
				<port id="1" precision="FP32" />
				<port id="2" precision="FP32" />
				<port id="3" precision="FP32" />
				<port id="4" precision="FP32" />
			</input>
			<output>
				<port id="5" precision="FP32">
					<dim>1</dim>
					<dim>192</dim>
					<dim>-1</dim>
				</port>
			</output>
		</layer>
		<layer id="320" name="Constant_4290567" type="Const" version="opset1">
			<data element_type="i8" shape="768, 192, 3" offset="534464" size="442368" />
			<output>
				<port id="0" precision="I8">
					<dim>768</dim>
					<dim>192</dim>
					<dim>3</dim>
				</port>
			</output>
		</layer>
		<layer id="321" name="Convert_4290568" type="Convert" version="opset1">
			<data destination_type="f32" />
			<input>
				<port id="0" precision="I8">
					<dim>768</dim>
					<dim>192</dim>
					<dim>3</dim>
				</port>
			</input>
			<output>
				<port id="1" precision="FP32">
					<dim>768</dim>
					<dim>192</dim>
					<dim>3</dim>
				</port>
			</output>
		</layer>
		<layer id="322" name="Constant_4290569" type="Const" version="opset1">
			<data element_type="f32" shape="768, 1, 1" offset="976832" size="3072" />
			<output>
				<port id="0" precision="FP32">
					<dim>768</dim>
					<dim>1</dim>
					<dim>1</dim>
				</port>
			</output>
		</layer>
		<layer id="323" name="__module.model.enc_p.encoder.ffn_layers.0.conv_1/aten::_convolution/Convolution/fq_weights_1" type="Multiply" version="opset1">
			<data auto_broadcast="numpy" />
			<input>
				<port id="0" precision="FP32">
					<dim>768</dim>
					<dim>192</dim>
					<dim>3</dim>
				</port>
				<port id="1" precision="FP32">
					<dim>768</dim>
					<dim>1</dim>
					<dim>1</dim>
				</port>
			</input>
			<output>
				<port id="2" precision="FP32">
					<dim>768</dim>
					<dim>192</dim>
					<dim>3</dim>
				</port>
			</output>
		</layer>
		<layer id="324" name="__module.model.enc_p.encoder.ffn_layers.0.conv_1/aten::_convolution/Convolution" type="Convolution" version="opset1">
			<data strides="1" dilations="1" pads_begin="1" pads_end="1" auto_pad="explicit" />
			<input>
				<port id="0" precision="FP32">
					<dim>1</dim>
					<dim>192</dim>
					<dim>-1</dim>
				</port>
				<port id="1" precision="FP32">
					<dim>768</dim>
					<dim>192</dim>
					<dim>3</dim>
				</port>
			</input>
			<output>
				<port id="2" precision="FP32">
					<dim>1</dim>
					<dim>768</dim>
					<dim>-1</dim>
				</port>
			</output>
		</layer>
		<layer id="325" name="__module.model.enc_p.encoder.ffn_layers.0.conv_1/aten::_convolution/Reshape" type="Const" version="opset1">
			<data element_type="f32" shape="1, 768, 1" offset="979904" size="3072" />
			<output>
				<port id="0" precision="FP32">
					<dim>1</dim>
					<dim>768</dim>
					<dim>1</dim>
				</port>
			</output>
		</layer>
		<layer id="326" name="__module.model.enc_p.encoder.ffn_layers.0.conv_1/aten::_convolution/Add" type="Add" version="opset1">
			<data auto_broadcast="numpy" />
			<input>
				<port id="0" precision="FP32">
					<dim>1</dim>
					<dim>768</dim>
					<dim>-1</dim>
				</port>
				<port id="1" precision="FP32">
					<dim>1</dim>
					<dim>768</dim>
					<dim>1</dim>
				</port>
			</input>
			<output>
				<port id="2" precision="FP32" names="338">
					<dim>1</dim>
					<dim>768</dim>
					<dim>-1</dim>
				</port>
			</output>
		</layer>
		<layer id="327" name="__module.model.enc_p.encoder.ffn_layers.0/aten::relu/Relu" type="ReLU" version="opset1">
			<input>
				<port id="0" precision="FP32">
					<dim>1</dim>
					<dim>768</dim>
					<dim>-1</dim>
				</port>
			</input>
			<output>
				<port id="1" precision="FP32" names="339,input.17">
					<dim>1</dim>
					<dim>768</dim>
					<dim>-1</dim>
				</port>
			</output>
		</layer>
		<layer id="328" name="__module.model.enc_p.encoder.ffn_layers.0/aten::mul/Multiply_1" type="Multiply" version="opset1">
			<data auto_broadcast="numpy" />
			<input>
				<port id="0" precision="FP32">
					<dim>1</dim>
					<dim>768</dim>
					<dim>-1</dim>
				</port>
				<port id="1" precision="FP32">
					<dim>1</dim>
					<dim>1</dim>
					<dim>-1</dim>
				</port>
			</input>
			<output>
				<port id="2" precision="FP32" names="341,input.19">
					<dim>1</dim>
					<dim>768</dim>
					<dim>-1</dim>
				</port>
			</output>
		</layer>
		<layer id="329" name="__module.model.enc_p.encoder.ffn_layers.0/aten::mul/Multiply_1/fq_output_0/input_low" type="Const" version="opset1">
			<data element_type="f32" shape="" offset="0" size="4" />
			<output>
				<port id="0" precision="FP32" />
			</output>
		</layer>
		<layer id="330" name="__module.model.enc_p.encoder.ffn_layers.0/aten::mul/Multiply_1/fq_output_0/input_high" type="Const" version="opset1">
			<data element_type="f32" shape="" offset="982976" size="4" />
			<output>
				<port id="0" precision="FP32" />
			</output>
		</layer>
		<layer id="331" name="__module.model.enc_p.encoder.ffn_layers.0/aten::mul/Multiply_1/fq_output_0/output_low" type="Const" version="opset1">
			<data element_type="f32" shape="" offset="0" size="4" />
			<output>
				<port id="0" precision="FP32" />
			</output>
		</layer>
		<layer id="332" name="__module.model.enc_p.encoder.ffn_layers.0/aten::mul/Multiply_1/fq_output_0/output_high" type="Const" version="opset1">
			<data element_type="f32" shape="" offset="982976" size="4" />
			<output>
				<port id="0" precision="FP32" />
			</output>
		</layer>
		<layer id="333" name="__module.model.enc_p.encoder.ffn_layers.0/aten::mul/Multiply_1/fq_output_0" type="FakeQuantize" version="opset1">
			<data levels="256" auto_broadcast="numpy" />
			<input>
				<port id="0" precision="FP32">
					<dim>1</dim>
					<dim>768</dim>
					<dim>-1</dim>
				</port>
				<port id="1" precision="FP32" />
				<port id="2" precision="FP32" />
				<port id="3" precision="FP32" />
				<port id="4" precision="FP32" />
			</input>
			<output>
				<port id="5" precision="FP32">
					<dim>1</dim>
					<dim>768</dim>
					<dim>-1</dim>
				</port>
			</output>
		</layer>
		<layer id="334" name="Constant_4290571" type="Const" version="opset1">
			<data element_type="i8" shape="192, 768, 3" offset="982980" size="442368" />
			<output>
				<port id="0" precision="I8">
					<dim>192</dim>
					<dim>768</dim>
					<dim>3</dim>
				</port>
			</output>
		</layer>
		<layer id="335" name="Convert_4290572" type="Convert" version="opset1">
			<data destination_type="f32" />
			<input>
				<port id="0" precision="I8">
					<dim>192</dim>
					<dim>768</dim>
					<dim>3</dim>
				</port>
			</input>
			<output>
				<port id="1" precision="FP32">
					<dim>192</dim>
					<dim>768</dim>
					<dim>3</dim>
				</port>
			</output>
		</layer>
		<layer id="336" name="Constant_4290573" type="Const" version="opset1">
			<data element_type="f32" shape="192, 1, 1" offset="1425348" size="768" />
			<output>
				<port id="0" precision="FP32">
					<dim>192</dim>
					<dim>1</dim>
					<dim>1</dim>
				</port>
			</output>
		</layer>
		<layer id="337" name="__module.model.enc_p.encoder.ffn_layers.0.conv_2/aten::_convolution/Convolution/fq_weights_1" type="Multiply" version="opset1">
			<data auto_broadcast="numpy" />
			<input>
				<port id="0" precision="FP32">
					<dim>192</dim>
					<dim>768</dim>
					<dim>3</dim>
				</port>
				<port id="1" precision="FP32">
					<dim>192</dim>
					<dim>1</dim>
					<dim>1</dim>
				</port>
			</input>
			<output>
				<port id="2" precision="FP32">
					<dim>192</dim>
					<dim>768</dim>
					<dim>3</dim>
				</port>
			</output>
		</layer>
		<layer id="338" name="__module.model.enc_p.encoder.ffn_layers.0.conv_2/aten::_convolution/Convolution" type="Convolution" version="opset1">
			<data strides="1" dilations="1" pads_begin="1" pads_end="1" auto_pad="explicit" />
			<input>
				<port id="0" precision="FP32">
					<dim>1</dim>
					<dim>768</dim>
					<dim>-1</dim>
				</port>
				<port id="1" precision="FP32">
					<dim>192</dim>
					<dim>768</dim>
					<dim>3</dim>
				</port>
			</input>
			<output>
				<port id="2" precision="FP32">
					<dim>1</dim>
					<dim>192</dim>
					<dim>-1</dim>
				</port>
			</output>
		</layer>
		<layer id="339" name="__module.model.enc_p.encoder.ffn_layers.0.conv_2/aten::_convolution/Reshape" type="Const" version="opset1">
			<data element_type="f32" shape="1, 192, 1" offset="1426116" size="768" />
			<output>
				<port id="0" precision="FP32">
					<dim>1</dim>
					<dim>192</dim>
					<dim>1</dim>
				</port>
			</output>
		</layer>
		<layer id="340" name="__module.model.enc_p.encoder.ffn_layers.0.conv_2/aten::_convolution/Add" type="Add" version="opset1">
			<data auto_broadcast="numpy" />
			<input>
				<port id="0" precision="FP32">
					<dim>1</dim>
					<dim>192</dim>
					<dim>-1</dim>
				</port>
				<port id="1" precision="FP32">
					<dim>1</dim>
					<dim>192</dim>
					<dim>1</dim>
				</port>
			</input>
			<output>
				<port id="2" precision="FP32" names="350,x.27">
					<dim>1</dim>
					<dim>192</dim>
					<dim>-1</dim>
				</port>
			</output>
		</layer>
		<layer id="341" name="__module.model.enc_p.encoder.ffn_layers.0/aten::mul/Multiply_2" type="Multiply" version="opset1">
			<data auto_broadcast="numpy" />
			<input>
				<port id="0" precision="FP32">
					<dim>1</dim>
					<dim>192</dim>
					<dim>-1</dim>
				</port>
				<port id="1" precision="FP32">
					<dim>1</dim>
					<dim>1</dim>
					<dim>-1</dim>
				</port>
			</input>
			<output>
				<port id="2" precision="FP32" names="351,input.21">
					<dim>1</dim>
					<dim>192</dim>
					<dim>-1</dim>
				</port>
			</output>
		</layer>
		<layer id="342" name="__module.model.enc_p.encoder/aten::add/Add_1" type="Add" version="opset1">
			<data auto_broadcast="numpy" />
			<input>
				<port id="0" precision="FP32">
					<dim>1</dim>
					<dim>192</dim>
					<dim>-1</dim>
				</port>
				<port id="1" precision="FP32">
					<dim>1</dim>
					<dim>192</dim>
					<dim>-1</dim>
				</port>
			</input>
			<output>
				<port id="2" precision="FP32" names="353,x.29">
					<dim>1</dim>
					<dim>192</dim>
					<dim>-1</dim>
				</port>
			</output>
		</layer>
		<layer id="343" name="__module.model.enc_p.encoder.norm_layers_2.0/aten::transpose/ScatterElementsUpdate" type="Const" version="opset1">
			<data element_type="i32" shape="3" offset="223048" size="12" />
			<output>
				<port id="0" precision="I32">
					<dim>3</dim>
				</port>
			</output>
		</layer>
		<layer id="344" name="__module.model.enc_p.encoder.norm_layers_2.0/aten::transpose/Transpose" type="Transpose" version="opset1">
			<input>
				<port id="0" precision="FP32">
					<dim>1</dim>
					<dim>192</dim>
					<dim>-1</dim>
				</port>
				<port id="1" precision="I32">
					<dim>3</dim>
				</port>
			</input>
			<output>
				<port id="2" precision="FP32" names="356">
					<dim>1</dim>
					<dim>-1</dim>
					<dim>192</dim>
				</port>
			</output>
		</layer>
		<layer id="345" name="__module.model.enc_p.encoder.norm_layers_2.0/aten::layer_norm/Multiply" type="Const" version="opset1">
			<data element_type="i32" shape="1" offset="532916" size="4" />
			<output>
				<port id="0" precision="I32">
					<dim>1</dim>
				</port>
			</output>
		</layer>
		<layer id="346" name="__module.model.enc_p.encoder.norm_layers_2.0/aten::layer_norm/MVN" type="MVN" version="opset6">
			<data eps="9.9999997473787516e-06" normalize_variance="true" eps_mode="INSIDE_SQRT" />
			<input>
				<port id="0" precision="FP32">
					<dim>1</dim>
					<dim>-1</dim>
					<dim>192</dim>
				</port>
				<port id="1" precision="I32">
					<dim>1</dim>
				</port>
			</input>
			<output>
				<port id="2" precision="FP32">
					<dim>1</dim>
					<dim>-1</dim>
					<dim>192</dim>
				</port>
			</output>
		</layer>
		<layer id="347" name="Constant_614757" type="Const" version="opset1">
			<data element_type="f32" shape="1, 1, 192" offset="1426884" size="768" />
			<output>
				<port id="0" precision="FP32">
					<dim>1</dim>
					<dim>1</dim>
					<dim>192</dim>
				</port>
			</output>
		</layer>
		<layer id="348" name="__module.model.enc_p.encoder.norm_layers_2.0/aten::layer_norm/Multiply_1" type="Multiply" version="opset1">
			<data auto_broadcast="numpy" />
			<input>
				<port id="0" precision="FP32">
					<dim>1</dim>
					<dim>-1</dim>
					<dim>192</dim>
				</port>
				<port id="1" precision="FP32">
					<dim>1</dim>
					<dim>1</dim>
					<dim>192</dim>
				</port>
			</input>
			<output>
				<port id="2" precision="FP32">
					<dim>1</dim>
					<dim>-1</dim>
					<dim>192</dim>
				</port>
			</output>
		</layer>
		<layer id="349" name="Constant_614758" type="Const" version="opset1">
			<data element_type="f32" shape="1, 1, 192" offset="1427652" size="768" />
			<output>
				<port id="0" precision="FP32">
					<dim>1</dim>
					<dim>1</dim>
					<dim>192</dim>
				</port>
			</output>
		</layer>
		<layer id="350" name="__module.model.enc_p.encoder.norm_layers_2.0/aten::layer_norm/Add" type="Add" version="opset1">
			<data auto_broadcast="numpy" />
			<input>
				<port id="0" precision="FP32">
					<dim>1</dim>
					<dim>-1</dim>
					<dim>192</dim>
				</port>
				<port id="1" precision="FP32">
					<dim>1</dim>
					<dim>1</dim>
					<dim>192</dim>
				</port>
			</input>
			<output>
				<port id="2" precision="FP32" names="358,x.31">
					<dim>1</dim>
					<dim>-1</dim>
					<dim>192</dim>
				</port>
			</output>
		</layer>
		<layer id="351" name="__module.model.enc_p.encoder.norm_layers_2.0/aten::transpose/ScatterElementsUpdate_1" type="Const" version="opset1">
			<data element_type="i32" shape="3" offset="223048" size="12" />
			<output>
				<port id="0" precision="I32">
					<dim>3</dim>
				</port>
			</output>
		</layer>
		<layer id="352" name="__module.model.enc_p.encoder.norm_layers_2.0/aten::transpose/Transpose_1" type="Transpose" version="opset1">
			<input>
				<port id="0" precision="FP32">
					<dim>1</dim>
					<dim>-1</dim>
					<dim>192</dim>
				</port>
				<port id="1" precision="I32">
					<dim>3</dim>
				</port>
			</input>
			<output>
				<port id="2" precision="FP32" names="359,x.41">
					<dim>1</dim>
					<dim>192</dim>
					<dim>-1</dim>
				</port>
			</output>
		</layer>
		<layer id="353" name="__module.model.enc_p.encoder.attn_layers.1/aten::masked_fill/ConvertLike" type="Const" version="opset1">
			<data element_type="f32" shape="" offset="372096" size="4" />
			<output>
				<port id="0" precision="FP32" />
			</output>
		</layer>
		<layer id="354" name="__module.model.enc_p.encoder.attn_layers.1.conv_q/aten::_convolution/Convolution/fq_input_0/input_low" type="Const" version="opset1">
			<data element_type="f32" shape="" offset="1428420" size="4" />
			<output>
				<port id="0" precision="FP32" />
			</output>
		</layer>
		<layer id="355" name="__module.model.enc_p.encoder.attn_layers.1.conv_q/aten::_convolution/Convolution/fq_input_0/input_high" type="Const" version="opset1">
			<data element_type="f32" shape="" offset="1428424" size="4" />
			<output>
				<port id="0" precision="FP32" />
			</output>
		</layer>
		<layer id="356" name="__module.model.enc_p.encoder.attn_layers.1.conv_q/aten::_convolution/Convolution/fq_input_0/output_low" type="Const" version="opset1">
			<data element_type="f32" shape="" offset="1428420" size="4" />
			<output>
				<port id="0" precision="FP32" />
			</output>
		</layer>
		<layer id="357" name="__module.model.enc_p.encoder.attn_layers.1.conv_q/aten::_convolution/Convolution/fq_input_0/output_high" type="Const" version="opset1">
			<data element_type="f32" shape="" offset="1428424" size="4" />
			<output>
				<port id="0" precision="FP32" />
			</output>
		</layer>
		<layer id="358" name="__module.model.enc_p.encoder.attn_layers.1.conv_q/aten::_convolution/Convolution/fq_input_0" type="FakeQuantize" version="opset1">
			<data levels="256" auto_broadcast="numpy" />
			<input>
				<port id="0" precision="FP32">
					<dim>1</dim>
					<dim>192</dim>
					<dim>-1</dim>
				</port>
				<port id="1" precision="FP32" />
				<port id="2" precision="FP32" />
				<port id="3" precision="FP32" />
				<port id="4" precision="FP32" />
			</input>
			<output>
				<port id="5" precision="FP32">
					<dim>1</dim>
					<dim>192</dim>
					<dim>-1</dim>
				</port>
			</output>
		</layer>
		<layer id="359" name="Constant_4290575" type="Const" version="opset1">
			<data element_type="i8" shape="192, 192, 1" offset="1428428" size="36864" />
			<output>
				<port id="0" precision="I8">
					<dim>192</dim>
					<dim>192</dim>
					<dim>1</dim>
				</port>
			</output>
		</layer>
		<layer id="360" name="Convert_4290576" type="Convert" version="opset1">
			<data destination_type="f32" />
			<input>
				<port id="0" precision="I8">
					<dim>192</dim>
					<dim>192</dim>
					<dim>1</dim>
				</port>
			</input>
			<output>
				<port id="1" precision="FP32">
					<dim>192</dim>
					<dim>192</dim>
					<dim>1</dim>
				</port>
			</output>
		</layer>
		<layer id="361" name="Constant_4290577" type="Const" version="opset1">
			<data element_type="f32" shape="192, 1, 1" offset="1465292" size="768" />
			<output>
				<port id="0" precision="FP32">
					<dim>192</dim>
					<dim>1</dim>
					<dim>1</dim>
				</port>
			</output>
		</layer>
		<layer id="362" name="__module.model.enc_p.encoder.attn_layers.1.conv_q/aten::_convolution/Convolution/fq_weights_1" type="Multiply" version="opset1">
			<data auto_broadcast="numpy" />
			<input>
				<port id="0" precision="FP32">
					<dim>192</dim>
					<dim>192</dim>
					<dim>1</dim>
				</port>
				<port id="1" precision="FP32">
					<dim>192</dim>
					<dim>1</dim>
					<dim>1</dim>
				</port>
			</input>
			<output>
				<port id="2" precision="FP32">
					<dim>192</dim>
					<dim>192</dim>
					<dim>1</dim>
				</port>
			</output>
		</layer>
		<layer id="363" name="__module.model.enc_p.encoder.attn_layers.1.conv_q/aten::_convolution/Convolution" type="Convolution" version="opset1">
			<data strides="1" dilations="1" pads_begin="0" pads_end="0" auto_pad="explicit" />
			<input>
				<port id="0" precision="FP32">
					<dim>1</dim>
					<dim>192</dim>
					<dim>-1</dim>
				</port>
				<port id="1" precision="FP32">
					<dim>192</dim>
					<dim>192</dim>
					<dim>1</dim>
				</port>
			</input>
			<output>
				<port id="2" precision="FP32">
					<dim>1</dim>
					<dim>192</dim>
					<dim>-1</dim>
				</port>
			</output>
		</layer>
		<layer id="364" name="__module.model.enc_p.encoder.attn_layers.1.conv_q/aten::_convolution/Reshape" type="Const" version="opset1">
			<data element_type="f32" shape="1, 192, 1" offset="1466060" size="768" />
			<output>
				<port id="0" precision="FP32">
					<dim>1</dim>
					<dim>192</dim>
					<dim>1</dim>
				</port>
			</output>
		</layer>
		<layer id="365" name="__module.model.enc_p.encoder.attn_layers.1.conv_q/aten::_convolution/Add" type="Add" version="opset1">
			<data auto_broadcast="numpy" />
			<input>
				<port id="0" precision="FP32">
					<dim>1</dim>
					<dim>192</dim>
					<dim>-1</dim>
				</port>
				<port id="1" precision="FP32">
					<dim>1</dim>
					<dim>192</dim>
					<dim>1</dim>
				</port>
			</input>
			<output>
				<port id="2" precision="FP32" names="372,query.5">
					<dim>1</dim>
					<dim>192</dim>
					<dim>-1</dim>
				</port>
			</output>
		</layer>
		<layer id="366" name="Constant_652237" type="Const" version="opset1">
			<data element_type="i64" shape="4" offset="410508" size="32" />
			<output>
				<port id="0" precision="I64">
					<dim>4</dim>
				</port>
			</output>
		</layer>
		<layer id="367" name="__module.model.enc_p.encoder.attn_layers.1/aten::view/Reshape" type="Reshape" version="opset1">
			<data special_zero="true" />
			<input>
				<port id="0" precision="FP32">
					<dim>1</dim>
					<dim>192</dim>
					<dim>-1</dim>
				</port>
				<port id="1" precision="I64">
					<dim>4</dim>
				</port>
			</input>
			<output>
				<port id="2" precision="FP32" names="393">
					<dim>1</dim>
					<dim>2</dim>
					<dim>96</dim>
					<dim>-1</dim>
				</port>
			</output>
		</layer>
		<layer id="368" name="__module.model.enc_p.encoder.attn_layers.1/aten::transpose/ScatterElementsUpdate" type="Const" version="opset1">
			<data element_type="i32" shape="4" offset="410540" size="16" />
			<output>
				<port id="0" precision="I32">
					<dim>4</dim>
				</port>
			</output>
		</layer>
		<layer id="369" name="__module.model.enc_p.encoder.attn_layers.1/aten::transpose/Transpose" type="Transpose" version="opset1">
			<input>
				<port id="0" precision="FP32">
					<dim>1</dim>
					<dim>2</dim>
					<dim>96</dim>
					<dim>-1</dim>
				</port>
				<port id="1" precision="I32">
					<dim>4</dim>
				</port>
			</input>
			<output>
				<port id="2" precision="FP32" names="394,query.7">
					<dim>1</dim>
					<dim>2</dim>
					<dim>-1</dim>
					<dim>96</dim>
				</port>
			</output>
		</layer>
		<layer id="370" name="Constant_614759" type="Const" version="opset1">
			<data element_type="f32" shape="1, 1, 1, 1" offset="410556" size="4" />
			<output>
				<port id="0" precision="FP32">
					<dim>1</dim>
					<dim>1</dim>
					<dim>1</dim>
					<dim>1</dim>
				</port>
			</output>
		</layer>
		<layer id="371" name="__module.model.enc_p.encoder.attn_layers.1/aten::div/Divide" type="Divide" version="opset1">
			<data auto_broadcast="numpy" m_pythondiv="true" />
			<input>
				<port id="0" precision="FP32">
					<dim>1</dim>
					<dim>2</dim>
					<dim>-1</dim>
					<dim>96</dim>
				</port>
				<port id="1" precision="FP32">
					<dim>1</dim>
					<dim>1</dim>
					<dim>1</dim>
					<dim>1</dim>
				</port>
			</input>
			<output>
				<port id="2" precision="FP32" names="401,415">
					<dim>1</dim>
					<dim>2</dim>
					<dim>-1</dim>
					<dim>96</dim>
				</port>
			</output>
		</layer>
		<layer id="372" name="__module.model.enc_p.encoder.attn_layers.1/aten::div/Divide/fq_output_0/input_low" type="Const" version="opset1">
			<data element_type="f32" shape="" offset="1466828" size="4" />
			<output>
				<port id="0" precision="FP32" />
			</output>
		</layer>
		<layer id="373" name="__module.model.enc_p.encoder.attn_layers.1/aten::div/Divide/fq_output_0/input_high" type="Const" version="opset1">
			<data element_type="f32" shape="" offset="1466832" size="4" />
			<output>
				<port id="0" precision="FP32" />
			</output>
		</layer>
		<layer id="374" name="__module.model.enc_p.encoder.attn_layers.1/aten::div/Divide/fq_output_0/output_low" type="Const" version="opset1">
			<data element_type="f32" shape="" offset="1466828" size="4" />
			<output>
				<port id="0" precision="FP32" />
			</output>
		</layer>
		<layer id="375" name="__module.model.enc_p.encoder.attn_layers.1/aten::div/Divide/fq_output_0/output_high" type="Const" version="opset1">
			<data element_type="f32" shape="" offset="1466832" size="4" />
			<output>
				<port id="0" precision="FP32" />
			</output>
		</layer>
		<layer id="376" name="__module.model.enc_p.encoder.attn_layers.1/aten::div/Divide/fq_output_0" type="FakeQuantize" version="opset1">
			<data levels="256" auto_broadcast="numpy" />
			<input>
				<port id="0" precision="FP32">
					<dim>1</dim>
					<dim>2</dim>
					<dim>-1</dim>
					<dim>96</dim>
				</port>
				<port id="1" precision="FP32" />
				<port id="2" precision="FP32" />
				<port id="3" precision="FP32" />
				<port id="4" precision="FP32" />
			</input>
			<output>
				<port id="5" precision="FP32">
					<dim>1</dim>
					<dim>2</dim>
					<dim>-1</dim>
					<dim>96</dim>
				</port>
			</output>
		</layer>
		<layer id="377" name="__module.model.enc_p.encoder.attn_layers.1.conv_k/aten::_convolution/Convolution/fq_input_0/input_low" type="Const" version="opset1">
			<data element_type="f32" shape="" offset="1428420" size="4" />
			<output>
				<port id="0" precision="FP32" />
			</output>
		</layer>
		<layer id="378" name="__module.model.enc_p.encoder.attn_layers.1.conv_k/aten::_convolution/Convolution/fq_input_0/input_high" type="Const" version="opset1">
			<data element_type="f32" shape="" offset="1428424" size="4" />
			<output>
				<port id="0" precision="FP32" />
			</output>
		</layer>
		<layer id="379" name="__module.model.enc_p.encoder.attn_layers.1.conv_k/aten::_convolution/Convolution/fq_input_0/output_low" type="Const" version="opset1">
			<data element_type="f32" shape="" offset="1428420" size="4" />
			<output>
				<port id="0" precision="FP32" />
			</output>
		</layer>
		<layer id="380" name="__module.model.enc_p.encoder.attn_layers.1.conv_k/aten::_convolution/Convolution/fq_input_0/output_high" type="Const" version="opset1">
			<data element_type="f32" shape="" offset="1428424" size="4" />
			<output>
				<port id="0" precision="FP32" />
			</output>
		</layer>
		<layer id="381" name="__module.model.enc_p.encoder.attn_layers.1.conv_k/aten::_convolution/Convolution/fq_input_0" type="FakeQuantize" version="opset1">
			<data levels="256" auto_broadcast="numpy" />
			<input>
				<port id="0" precision="FP32">
					<dim>1</dim>
					<dim>192</dim>
					<dim>-1</dim>
				</port>
				<port id="1" precision="FP32" />
				<port id="2" precision="FP32" />
				<port id="3" precision="FP32" />
				<port id="4" precision="FP32" />
			</input>
			<output>
				<port id="5" precision="FP32">
					<dim>1</dim>
					<dim>192</dim>
					<dim>-1</dim>
				</port>
			</output>
		</layer>
		<layer id="382" name="Constant_4290579" type="Const" version="opset1">
			<data element_type="i8" shape="192, 192, 1" offset="1466836" size="36864" />
			<output>
				<port id="0" precision="I8">
					<dim>192</dim>
					<dim>192</dim>
					<dim>1</dim>
				</port>
			</output>
		</layer>
		<layer id="383" name="Convert_4290580" type="Convert" version="opset1">
			<data destination_type="f32" />
			<input>
				<port id="0" precision="I8">
					<dim>192</dim>
					<dim>192</dim>
					<dim>1</dim>
				</port>
			</input>
			<output>
				<port id="1" precision="FP32">
					<dim>192</dim>
					<dim>192</dim>
					<dim>1</dim>
				</port>
			</output>
		</layer>
		<layer id="384" name="Constant_4290581" type="Const" version="opset1">
			<data element_type="f32" shape="192, 1, 1" offset="1503700" size="768" />
			<output>
				<port id="0" precision="FP32">
					<dim>192</dim>
					<dim>1</dim>
					<dim>1</dim>
				</port>
			</output>
		</layer>
		<layer id="385" name="__module.model.enc_p.encoder.attn_layers.1.conv_k/aten::_convolution/Convolution/fq_weights_1" type="Multiply" version="opset1">
			<data auto_broadcast="numpy" />
			<input>
				<port id="0" precision="FP32">
					<dim>192</dim>
					<dim>192</dim>
					<dim>1</dim>
				</port>
				<port id="1" precision="FP32">
					<dim>192</dim>
					<dim>1</dim>
					<dim>1</dim>
				</port>
			</input>
			<output>
				<port id="2" precision="FP32">
					<dim>192</dim>
					<dim>192</dim>
					<dim>1</dim>
				</port>
			</output>
		</layer>
		<layer id="386" name="__module.model.enc_p.encoder.attn_layers.1.conv_k/aten::_convolution/Convolution" type="Convolution" version="opset1">
			<data strides="1" dilations="1" pads_begin="0" pads_end="0" auto_pad="explicit" />
			<input>
				<port id="0" precision="FP32">
					<dim>1</dim>
					<dim>192</dim>
					<dim>-1</dim>
				</port>
				<port id="1" precision="FP32">
					<dim>192</dim>
					<dim>192</dim>
					<dim>1</dim>
				</port>
			</input>
			<output>
				<port id="2" precision="FP32">
					<dim>1</dim>
					<dim>192</dim>
					<dim>-1</dim>
				</port>
			</output>
		</layer>
		<layer id="387" name="__module.model.enc_p.encoder.attn_layers.1.conv_k/aten::_convolution/Reshape" type="Const" version="opset1">
			<data element_type="f32" shape="1, 192, 1" offset="1504468" size="768" />
			<output>
				<port id="0" precision="FP32">
					<dim>1</dim>
					<dim>192</dim>
					<dim>1</dim>
				</port>
			</output>
		</layer>
		<layer id="388" name="__module.model.enc_p.encoder.attn_layers.1.conv_k/aten::_convolution/Add" type="Add" version="opset1">
			<data auto_broadcast="numpy" />
			<input>
				<port id="0" precision="FP32">
					<dim>1</dim>
					<dim>192</dim>
					<dim>-1</dim>
				</port>
				<port id="1" precision="FP32">
					<dim>1</dim>
					<dim>192</dim>
					<dim>1</dim>
				</port>
			</input>
			<output>
				<port id="2" precision="FP32" names="379,key.5">
					<dim>1</dim>
					<dim>192</dim>
					<dim>-1</dim>
				</port>
			</output>
		</layer>
		<layer id="389" name="__module.model.enc_p.encoder.attn_layers.1.conv_k/aten::_convolution/Add/fq_output_0/input_low" type="Const" version="opset1">
			<data element_type="f32" shape="" offset="1505236" size="4" />
			<output>
				<port id="0" precision="FP32" />
			</output>
		</layer>
		<layer id="390" name="__module.model.enc_p.encoder.attn_layers.1.conv_k/aten::_convolution/Add/fq_output_0/input_high" type="Const" version="opset1">
			<data element_type="f32" shape="" offset="1505240" size="4" />
			<output>
				<port id="0" precision="FP32" />
			</output>
		</layer>
		<layer id="391" name="__module.model.enc_p.encoder.attn_layers.1.conv_k/aten::_convolution/Add/fq_output_0/output_low" type="Const" version="opset1">
			<data element_type="f32" shape="" offset="1505236" size="4" />
			<output>
				<port id="0" precision="FP32" />
			</output>
		</layer>
		<layer id="392" name="__module.model.enc_p.encoder.attn_layers.1.conv_k/aten::_convolution/Add/fq_output_0/output_high" type="Const" version="opset1">
			<data element_type="f32" shape="" offset="1505240" size="4" />
			<output>
				<port id="0" precision="FP32" />
			</output>
		</layer>
		<layer id="393" name="__module.model.enc_p.encoder.attn_layers.1.conv_k/aten::_convolution/Add/fq_output_0" type="FakeQuantize" version="opset1">
			<data levels="256" auto_broadcast="numpy" />
			<input>
				<port id="0" precision="FP32">
					<dim>1</dim>
					<dim>192</dim>
					<dim>-1</dim>
				</port>
				<port id="1" precision="FP32" />
				<port id="2" precision="FP32" />
				<port id="3" precision="FP32" />
				<port id="4" precision="FP32" />
			</input>
			<output>
				<port id="5" precision="FP32">
					<dim>1</dim>
					<dim>192</dim>
					<dim>-1</dim>
				</port>
			</output>
		</layer>
		<layer id="394" name="Constant_652238" type="Const" version="opset1">
			<data element_type="i64" shape="4" offset="410508" size="32" />
			<output>
				<port id="0" precision="I64">
					<dim>4</dim>
				</port>
			</output>
		</layer>
		<layer id="395" name="__module.model.enc_p.encoder.attn_layers.1/aten::view/Reshape_1" type="Reshape" version="opset1">
			<data special_zero="true" />
			<input>
				<port id="0" precision="FP32">
					<dim>1</dim>
					<dim>192</dim>
					<dim>-1</dim>
				</port>
				<port id="1" precision="I64">
					<dim>4</dim>
				</port>
			</input>
			<output>
				<port id="2" precision="FP32" names="396,402">
					<dim>1</dim>
					<dim>2</dim>
					<dim>96</dim>
					<dim>-1</dim>
				</port>
			</output>
		</layer>
		<layer id="396" name="__module.model.enc_p.encoder.attn_layers.1/aten::matmul/MatMul" type="MatMul" version="opset1">
			<data transpose_a="false" transpose_b="false" />
			<input>
				<port id="0" precision="FP32">
					<dim>1</dim>
					<dim>2</dim>
					<dim>-1</dim>
					<dim>96</dim>
				</port>
				<port id="1" precision="FP32">
					<dim>1</dim>
					<dim>2</dim>
					<dim>96</dim>
					<dim>-1</dim>
				</port>
			</input>
			<output>
				<port id="2" precision="FP32" names="403,scores.5">
					<dim>1</dim>
					<dim>2</dim>
					<dim>-1</dim>
					<dim>-1</dim>
				</port>
			</output>
		</layer>
		<layer id="397" name="self.model.enc_p.encoder.attn_layers.1.emb_rel_k" type="Const" version="opset1">
			<data element_type="f32" shape="1, 9, 96" offset="1505244" size="3456" />
			<output>
				<port id="0" precision="FP32" names="self.model.enc_p.encoder.attn_layers.1.emb_rel_k">
					<dim>1</dim>
					<dim>9</dim>
					<dim>96</dim>
				</port>
			</output>
		</layer>
		<layer id="398" name="ShapeOf_639955" type="ShapeOf" version="opset3">
			<data output_type="i64" />
			<input>
				<port id="0" precision="FP32">
					<dim>1</dim>
					<dim>192</dim>
					<dim>-1</dim>
				</port>
			</input>
			<output>
				<port id="1" precision="I64">
					<dim>3</dim>
				</port>
			</output>
		</layer>
		<layer id="399" name="Constant_639966" type="Const" version="opset1">
			<data element_type="i64" shape="" offset="372060" size="8" />
			<output>
				<port id="0" precision="I64" />
			</output>
		</layer>
		<layer id="400" name="Constant_639967" type="Const" version="opset1">
			<data element_type="i64" shape="" offset="372068" size="8" />
			<output>
				<port id="0" precision="I64" />
			</output>
		</layer>
		<layer id="401" name="Gather_639968" type="Gather" version="opset8">
			<data batch_dims="0" />
			<input>
				<port id="0" precision="I64">
					<dim>3</dim>
				</port>
				<port id="1" precision="I64" />
				<port id="2" precision="I64" />
			</input>
			<output>
				<port id="3" precision="I64" names="389" />
			</output>
…
		<edge from-layer="7471" from-port="2" to-layer="7472" to-port="0" />
		<edge from-layer="7472" from-port="2" to-layer="7477" to-port="0" />
		<edge from-layer="7473" from-port="0" to-layer="7477" to-port="1" />
		<edge from-layer="7474" from-port="0" to-layer="7477" to-port="2" />
		<edge from-layer="7475" from-port="0" to-layer="7477" to-port="3" />
		<edge from-layer="7476" from-port="0" to-layer="7477" to-port="4" />
		<edge from-layer="7477" from-port="5" to-layer="7482" to-port="0" />
		<edge from-layer="7478" from-port="0" to-layer="7479" to-port="0" />
		<edge from-layer="7479" from-port="1" to-layer="7481" to-port="0" />
		<edge from-layer="7480" from-port="0" to-layer="7481" to-port="1" />
		<edge from-layer="7481" from-port="2" to-layer="7482" to-port="1" />
		<edge from-layer="7482" from-port="2" to-layer="7484" to-port="0" />
		<edge from-layer="7483" from-port="0" to-layer="7484" to-port="1" />
		<edge from-layer="7484" from-port="2" to-layer="7485" to-port="0" />
		<edge from-layer="7485" from-port="2" to-layer="7486" to-port="0" />
		<edge from-layer="7485" from-port="2" to-layer="7512" to-port="1" />
		<edge from-layer="7486" from-port="2" to-layer="7491" to-port="0" />
		<edge from-layer="7487" from-port="0" to-layer="7491" to-port="1" />
		<edge from-layer="7488" from-port="0" to-layer="7491" to-port="2" />
		<edge from-layer="7489" from-port="0" to-layer="7491" to-port="3" />
		<edge from-layer="7490" from-port="0" to-layer="7491" to-port="4" />
		<edge from-layer="7491" from-port="5" to-layer="7496" to-port="0" />
		<edge from-layer="7492" from-port="0" to-layer="7493" to-port="0" />
		<edge from-layer="7493" from-port="1" to-layer="7495" to-port="0" />
		<edge from-layer="7494" from-port="0" to-layer="7495" to-port="1" />
		<edge from-layer="7495" from-port="2" to-layer="7496" to-port="1" />
		<edge from-layer="7496" from-port="2" to-layer="7498" to-port="0" />
		<edge from-layer="7497" from-port="0" to-layer="7498" to-port="1" />
		<edge from-layer="7498" from-port="2" to-layer="7499" to-port="0" />
		<edge from-layer="7499" from-port="2" to-layer="7504" to-port="0" />
		<edge from-layer="7500" from-port="0" to-layer="7504" to-port="1" />
		<edge from-layer="7501" from-port="0" to-layer="7504" to-port="2" />
		<edge from-layer="7502" from-port="0" to-layer="7504" to-port="3" />
		<edge from-layer="7503" from-port="0" to-layer="7504" to-port="4" />
		<edge from-layer="7504" from-port="5" to-layer="7509" to-port="0" />
		<edge from-layer="7505" from-port="0" to-layer="7506" to-port="0" />
		<edge from-layer="7506" from-port="1" to-layer="7508" to-port="0" />
		<edge from-layer="7507" from-port="0" to-layer="7508" to-port="1" />
		<edge from-layer="7508" from-port="2" to-layer="7509" to-port="1" />
		<edge from-layer="7509" from-port="2" to-layer="7511" to-port="0" />
		<edge from-layer="7510" from-port="0" to-layer="7511" to-port="1" />
		<edge from-layer="7511" from-port="2" to-layer="7512" to-port="0" />
		<edge from-layer="7512" from-port="2" to-layer="7539" to-port="1" />
		<edge from-layer="7512" from-port="2" to-layer="7513" to-port="0" />
		<edge from-layer="7513" from-port="2" to-layer="7518" to-port="0" />
		<edge from-layer="7514" from-port="0" to-layer="7518" to-port="1" />
		<edge from-layer="7515" from-port="0" to-layer="7518" to-port="2" />
		<edge from-layer="7516" from-port="0" to-layer="7518" to-port="3" />
		<edge from-layer="7517" from-port="0" to-layer="7518" to-port="4" />
		<edge from-layer="7518" from-port="5" to-layer="7523" to-port="0" />
		<edge from-layer="7519" from-port="0" to-layer="7520" to-port="0" />
		<edge from-layer="7520" from-port="1" to-layer="7522" to-port="0" />
		<edge from-layer="7521" from-port="0" to-layer="7522" to-port="1" />
		<edge from-layer="7522" from-port="2" to-layer="7523" to-port="1" />
		<edge from-layer="7523" from-port="2" to-layer="7525" to-port="0" />
		<edge from-layer="7524" from-port="0" to-layer="7525" to-port="1" />
		<edge from-layer="7525" from-port="2" to-layer="7526" to-port="0" />
		<edge from-layer="7526" from-port="2" to-layer="7531" to-port="0" />
		<edge from-layer="7527" from-port="0" to-layer="7531" to-port="1" />
		<edge from-layer="7528" from-port="0" to-layer="7531" to-port="2" />
		<edge from-layer="7529" from-port="0" to-layer="7531" to-port="3" />
		<edge from-layer="7530" from-port="0" to-layer="7531" to-port="4" />
		<edge from-layer="7531" from-port="5" to-layer="7536" to-port="0" />
		<edge from-layer="7532" from-port="0" to-layer="7533" to-port="0" />
		<edge from-layer="7533" from-port="1" to-layer="7535" to-port="0" />
		<edge from-layer="7534" from-port="0" to-layer="7535" to-port="1" />
		<edge from-layer="7535" from-port="2" to-layer="7536" to-port="1" />
		<edge from-layer="7536" from-port="2" to-layer="7538" to-port="0" />
		<edge from-layer="7537" from-port="0" to-layer="7538" to-port="1" />
		<edge from-layer="7538" from-port="2" to-layer="7539" to-port="0" />
		<edge from-layer="7539" from-port="2" to-layer="7540" to-port="1" />
		<edge from-layer="7540" from-port="2" to-layer="7616" to-port="0" />
		<edge from-layer="7541" from-port="0" to-layer="7542" to-port="0" />
		<edge from-layer="7542" from-port="1" to-layer="7544" to-port="0" />
		<edge from-layer="7543" from-port="0" to-layer="7544" to-port="1" />
		<edge from-layer="7544" from-port="2" to-layer="7545" to-port="1" />
		<edge from-layer="7545" from-port="2" to-layer="7547" to-port="0" />
		<edge from-layer="7546" from-port="0" to-layer="7547" to-port="1" />
		<edge from-layer="7547" from-port="2" to-layer="7548" to-port="0" />
		<edge from-layer="7548" from-port="2" to-layer="7553" to-port="0" />
		<edge from-layer="7549" from-port="0" to-layer="7553" to-port="1" />
		<edge from-layer="7550" from-port="0" to-layer="7553" to-port="2" />
		<edge from-layer="7551" from-port="0" to-layer="7553" to-port="3" />
		<edge from-layer="7552" from-port="0" to-layer="7553" to-port="4" />
		<edge from-layer="7553" from-port="5" to-layer="7558" to-port="0" />
		<edge from-layer="7554" from-port="0" to-layer="7555" to-port="0" />
		<edge from-layer="7555" from-port="1" to-layer="7557" to-port="0" />
		<edge from-layer="7556" from-port="0" to-layer="7557" to-port="1" />
		<edge from-layer="7557" from-port="2" to-layer="7558" to-port="1" />
		<edge from-layer="7558" from-port="2" to-layer="7560" to-port="0" />
		<edge from-layer="7559" from-port="0" to-layer="7560" to-port="1" />
		<edge from-layer="7560" from-port="2" to-layer="7561" to-port="0" />
		<edge from-layer="7561" from-port="2" to-layer="7588" to-port="1" />
		<edge from-layer="7561" from-port="2" to-layer="7562" to-port="0" />
		<edge from-layer="7562" from-port="2" to-layer="7567" to-port="0" />
		<edge from-layer="7563" from-port="0" to-layer="7567" to-port="1" />
		<edge from-layer="7564" from-port="0" to-layer="7567" to-port="2" />
		<edge from-layer="7565" from-port="0" to-layer="7567" to-port="3" />
		<edge from-layer="7566" from-port="0" to-layer="7567" to-port="4" />
		<edge from-layer="7567" from-port="5" to-layer="7572" to-port="0" />
		<edge from-layer="7568" from-port="0" to-layer="7569" to-port="0" />
		<edge from-layer="7569" from-port="1" to-layer="7571" to-port="0" />
		<edge from-layer="7570" from-port="0" to-layer="7571" to-port="1" />
		<edge from-layer="7571" from-port="2" to-layer="7572" to-port="1" />
		<edge from-layer="7572" from-port="2" to-layer="7574" to-port="0" />
		<edge from-layer="7573" from-port="0" to-layer="7574" to-port="1" />
		<edge from-layer="7574" from-port="2" to-layer="7575" to-port="0" />
		<edge from-layer="7575" from-port="2" to-layer="7580" to-port="0" />
		<edge from-layer="7576" from-port="0" to-layer="7580" to-port="1" />
		<edge from-layer="7577" from-port="0" to-layer="7580" to-port="2" />
		<edge from-layer="7578" from-port="0" to-layer="7580" to-port="3" />
		<edge from-layer="7579" from-port="0" to-layer="7580" to-port="4" />
		<edge from-layer="7580" from-port="5" to-layer="7585" to-port="0" />
		<edge from-layer="7581" from-port="0" to-layer="7582" to-port="0" />
		<edge from-layer="7582" from-port="1" to-layer="7584" to-port="0" />
		<edge from-layer="7583" from-port="0" to-layer="7584" to-port="1" />
		<edge from-layer="7584" from-port="2" to-layer="7585" to-port="1" />
		<edge from-layer="7585" from-port="2" to-layer="7587" to-port="0" />
		<edge from-layer="7586" from-port="0" to-layer="7587" to-port="1" />
		<edge from-layer="7587" from-port="2" to-layer="7588" to-port="0" />
		<edge from-layer="7588" from-port="2" to-layer="7615" to-port="1" />
		<edge from-layer="7588" from-port="2" to-layer="7589" to-port="0" />
		<edge from-layer="7589" from-port="2" to-layer="7594" to-port="0" />
		<edge from-layer="7590" from-port="0" to-layer="7594" to-port="1" />
		<edge from-layer="7591" from-port="0" to-layer="7594" to-port="2" />
		<edge from-layer="7592" from-port="0" to-layer="7594" to-port="3" />
		<edge from-layer="7593" from-port="0" to-layer="7594" to-port="4" />
		<edge from-layer="7594" from-port="5" to-layer="7599" to-port="0" />
		<edge from-layer="7595" from-port="0" to-layer="7596" to-port="0" />
		<edge from-layer="7596" from-port="1" to-layer="7598" to-port="0" />
		<edge from-layer="7597" from-port="0" to-layer="7598" to-port="1" />
		<edge from-layer="7598" from-port="2" to-layer="7599" to-port="1" />
		<edge from-layer="7599" from-port="2" to-layer="7601" to-port="0" />
		<edge from-layer="7600" from-port="0" to-layer="7601" to-port="1" />
		<edge from-layer="7601" from-port="2" to-layer="7602" to-port="0" />
		<edge from-layer="7602" from-port="2" to-layer="7607" to-port="0" />
		<edge from-layer="7603" from-port="0" to-layer="7607" to-port="1" />
		<edge from-layer="7604" from-port="0" to-layer="7607" to-port="2" />
		<edge from-layer="7605" from-port="0" to-layer="7607" to-port="3" />
		<edge from-layer="7606" from-port="0" to-layer="7607" to-port="4" />
		<edge from-layer="7607" from-port="5" to-layer="7612" to-port="0" />
		<edge from-layer="7608" from-port="0" to-layer="7609" to-port="0" />
		<edge from-layer="7609" from-port="1" to-layer="7611" to-port="0" />
		<edge from-layer="7610" from-port="0" to-layer="7611" to-port="1" />
		<edge from-layer="7611" from-port="2" to-layer="7612" to-port="1" />
		<edge from-layer="7612" from-port="2" to-layer="7614" to-port="0" />
		<edge from-layer="7613" from-port="0" to-layer="7614" to-port="1" />
		<edge from-layer="7614" from-port="2" to-layer="7615" to-port="0" />
		<edge from-layer="7615" from-port="2" to-layer="7616" to-port="1" />
		<edge from-layer="7616" from-port="2" to-layer="7618" to-port="0" />
		<edge from-layer="7617" from-port="0" to-layer="7618" to-port="1" />
		<edge from-layer="7618" from-port="2" to-layer="7619" to-port="0" />
		<edge from-layer="7619" from-port="2" to-layer="7624" to-port="0" />
		<edge from-layer="7620" from-port="0" to-layer="7624" to-port="1" />
		<edge from-layer="7621" from-port="0" to-layer="7624" to-port="2" />
		<edge from-layer="7622" from-port="0" to-layer="7624" to-port="3" />
		<edge from-layer="7623" from-port="0" to-layer="7624" to-port="4" />
		<edge from-layer="7624" from-port="5" to-layer="7629" to-port="0" />
		<edge from-layer="7625" from-port="0" to-layer="7626" to-port="0" />
		<edge from-layer="7626" from-port="1" to-layer="7628" to-port="0" />
		<edge from-layer="7627" from-port="0" to-layer="7628" to-port="1" />
		<edge from-layer="7628" from-port="2" to-layer="7629" to-port="1" />
		<edge from-layer="7629" from-port="2" to-layer="7631" to-port="0" />
		<edge from-layer="7630" from-port="0" to-layer="7631" to-port="1" />
		<edge from-layer="7631" from-port="2" to-layer="7632" to-port="0" />
		<edge from-layer="7631" from-port="2" to-layer="7733" to-port="1" />
		<edge from-layer="7631" from-port="2" to-layer="7809" to-port="1" />
		<edge from-layer="7631" from-port="2" to-layer="7658" to-port="1" />
		<edge from-layer="7632" from-port="2" to-layer="7637" to-port="0" />
		<edge from-layer="7633" from-port="0" to-layer="7637" to-port="1" />
		<edge from-layer="7634" from-port="0" to-layer="7637" to-port="2" />
		<edge from-layer="7635" from-port="0" to-layer="7637" to-port="3" />
		<edge from-layer="7636" from-port="0" to-layer="7637" to-port="4" />
		<edge from-layer="7637" from-port="5" to-layer="7717" to-port="0" />
		<edge from-layer="7637" from-port="5" to-layer="7793" to-port="0" />
		<edge from-layer="7637" from-port="5" to-layer="7642" to-port="0" />
		<edge from-layer="7638" from-port="0" to-layer="7639" to-port="0" />
		<edge from-layer="7639" from-port="1" to-layer="7641" to-port="0" />
		<edge from-layer="7640" from-port="0" to-layer="7641" to-port="1" />
		<edge from-layer="7641" from-port="2" to-layer="7642" to-port="1" />
		<edge from-layer="7642" from-port="2" to-layer="7644" to-port="0" />
		<edge from-layer="7643" from-port="0" to-layer="7644" to-port="1" />
		<edge from-layer="7644" from-port="2" to-layer="7645" to-port="0" />
		<edge from-layer="7645" from-port="2" to-layer="7650" to-port="0" />
		<edge from-layer="7646" from-port="0" to-layer="7650" to-port="1" />
		<edge from-layer="7647" from-port="0" to-layer="7650" to-port="2" />
		<edge from-layer="7648" from-port="0" to-layer="7650" to-port="3" />
		<edge from-layer="7649" from-port="0" to-layer="7650" to-port="4" />
		<edge from-layer="7650" from-port="5" to-layer="7655" to-port="0" />
		<edge from-layer="7651" from-port="0" to-layer="7652" to-port="0" />
		<edge from-layer="7652" from-port="1" to-layer="7654" to-port="0" />
		<edge from-layer="7653" from-port="0" to-layer="7654" to-port="1" />
		<edge from-layer="7654" from-port="2" to-layer="7655" to-port="1" />
		<edge from-layer="7655" from-port="2" to-layer="7657" to-port="0" />
		<edge from-layer="7656" from-port="0" to-layer="7657" to-port="1" />
		<edge from-layer="7657" from-port="2" to-layer="7658" to-port="0" />
		<edge from-layer="7658" from-port="2" to-layer="7685" to-port="1" />
		<edge from-layer="7658" from-port="2" to-layer="7659" to-port="0" />
		<edge from-layer="7659" from-port="2" to-layer="7664" to-port="0" />
		<edge from-layer="7660" from-port="0" to-layer="7664" to-port="1" />
		<edge from-layer="7661" from-port="0" to-layer="7664" to-port="2" />
		<edge from-layer="7662" from-port="0" to-layer="7664" to-port="3" />
		<edge from-layer="7663" from-port="0" to-layer="7664" to-port="4" />
		<edge from-layer="7664" from-port="5" to-layer="7669" to-port="0" />
		<edge from-layer="7665" from-port="0" to-layer="7666" to-port="0" />
		<edge from-layer="7666" from-port="1" to-layer="7668" to-port="0" />
		<edge from-layer="7667" from-port="0" to-layer="7668" to-port="1" />
		<edge from-layer="7668" from-port="2" to-layer="7669" to-port="1" />
		<edge from-layer="7669" from-port="2" to-layer="7671" to-port="0" />
		<edge from-layer="7670" from-port="0" to-layer="7671" to-port="1" />
		<edge from-layer="7671" from-port="2" to-layer="7672" to-port="0" />
		<edge from-layer="7672" from-port="2" to-layer="7677" to-port="0" />
		<edge from-layer="7673" from-port="0" to-layer="7677" to-port="1" />
		<edge from-layer="7674" from-port="0" to-layer="7677" to-port="2" />
		<edge from-layer="7675" from-port="0" to-layer="7677" to-port="3" />
		<edge from-layer="7676" from-port="0" to-layer="7677" to-port="4" />
		<edge from-layer="7677" from-port="5" to-layer="7682" to-port="0" />
		<edge from-layer="7678" from-port="0" to-layer="7679" to-port="0" />
		<edge from-layer="7679" from-port="1" to-layer="7681" to-port="0" />
		<edge from-layer="7680" from-port="0" to-layer="7681" to-port="1" />
		<edge from-layer="7681" from-port="2" to-layer="7682" to-port="1" />
		<edge from-layer="7682" from-port="2" to-layer="7684" to-port="0" />
		<edge from-layer="7683" from-port="0" to-layer="7684" to-port="1" />
		<edge from-layer="7684" from-port="2" to-layer="7685" to-port="0" />
		<edge from-layer="7685" from-port="2" to-layer="7712" to-port="1" />
		<edge from-layer="7685" from-port="2" to-layer="7686" to-port="0" />
		<edge from-layer="7686" from-port="2" to-layer="7691" to-port="0" />
		<edge from-layer="7687" from-port="0" to-layer="7691" to-port="1" />
		<edge from-layer="7688" from-port="0" to-layer="7691" to-port="2" />
		<edge from-layer="7689" from-port="0" to-layer="7691" to-port="3" />
		<edge from-layer="7690" from-port="0" to-layer="7691" to-port="4" />
		<edge from-layer="7691" from-port="5" to-layer="7696" to-port="0" />
		<edge from-layer="7692" from-port="0" to-layer="7693" to-port="0" />
		<edge from-layer="7693" from-port="1" to-layer="7695" to-port="0" />
		<edge from-layer="7694" from-port="0" to-layer="7695" to-port="1" />
		<edge from-layer="7695" from-port="2" to-layer="7696" to-port="1" />
		<edge from-layer="7696" from-port="2" to-layer="7698" to-port="0" />
		<edge from-layer="7697" from-port="0" to-layer="7698" to-port="1" />
		<edge from-layer="7698" from-port="2" to-layer="7699" to-port="0" />
		<edge from-layer="7699" from-port="2" to-layer="7704" to-port="0" />
		<edge from-layer="7700" from-port="0" to-layer="7704" to-port="1" />
		<edge from-layer="7701" from-port="0" to-layer="7704" to-port="2" />
		<edge from-layer="7702" from-port="0" to-layer="7704" to-port="3" />
		<edge from-layer="7703" from-port="0" to-layer="7704" to-port="4" />
		<edge from-layer="7704" from-port="5" to-layer="7709" to-port="0" />
		<edge from-layer="7705" from-port="0" to-layer="7706" to-port="0" />
		<edge from-layer="7706" from-port="1" to-layer="7708" to-port="0" />
		<edge from-layer="7707" from-port="0" to-layer="7708" to-port="1" />
		<edge from-layer="7708" from-port="2" to-layer="7709" to-port="1" />
		<edge from-layer="7709" from-port="2" to-layer="7711" to-port="0" />
		<edge from-layer="7710" from-port="0" to-layer="7711" to-port="1" />
		<edge from-layer="7711" from-port="2" to-layer="7712" to-port="0" />
		<edge from-layer="7712" from-port="2" to-layer="7788" to-port="0" />
		<edge from-layer="7713" from-port="0" to-layer="7714" to-port="0" />
		<edge from-layer="7714" from-port="1" to-layer="7716" to-port="0" />
		<edge from-layer="7715" from-port="0" to-layer="7716" to-port="1" />
		<edge from-layer="7716" from-port="2" to-layer="7717" to-port="1" />
		<edge from-layer="7717" from-port="2" to-layer="7719" to-port="0" />
		<edge from-layer="7718" from-port="0" to-layer="7719" to-port="1" />
		<edge from-layer="7719" from-port="2" to-layer="7720" to-port="0" />
		<edge from-layer="7720" from-port="2" to-layer="7725" to-port="0" />
		<edge from-layer="7721" from-port="0" to-layer="7725" to-port="1" />
		<edge from-layer="7722" from-port="0" to-layer="7725" to-port="2" />
		<edge from-layer="7723" from-port="0" to-layer="7725" to-port="3" />
		<edge from-layer="7724" from-port="0" to-layer="7725" to-port="4" />
		<edge from-layer="7725" from-port="5" to-layer="7730" to-port="0" />
		<edge from-layer="7726" from-port="0" to-layer="7727" to-port="0" />
		<edge from-layer="7727" from-port="1" to-layer="7729" to-port="0" />
		<edge from-layer="7728" from-port="0" to-layer="7729" to-port="1" />
		<edge from-layer="7729" from-port="2" to-layer="7730" to-port="1" />
		<edge from-layer="7730" from-port="2" to-layer="7732" to-port="0" />
		<edge from-layer="7731" from-port="0" to-layer="7732" to-port="1" />
		<edge from-layer="7732" from-port="2" to-layer="7733" to-port="0" />
		<edge from-layer="7733" from-port="2" to-layer="7760" to-port="1" />
		<edge from-layer="7733" from-port="2" to-layer="7734" to-port="0" />
		<edge from-layer="7734" from-port="2" to-layer="7739" to-port="0" />
		<edge from-layer="7735" from-port="0" to-layer="7739" to-port="1" />
		<edge from-layer="7736" from-port="0" to-layer="7739" to-port="2" />
		<edge from-layer="7737" from-port="0" to-layer="7739" to-port="3" />
		<edge from-layer="7738" from-port="0" to-layer="7739" to-port="4" />
		<edge from-layer="7739" from-port="5" to-layer="7744" to-port="0" />
		<edge from-layer="7740" from-port="0" to-layer="7741" to-port="0" />
		<edge from-layer="7741" from-port="1" to-layer="7743" to-port="0" />
		<edge from-layer="7742" from-port="0" to-layer="7743" to-port="1" />
		<edge from-layer="7743" from-port="2" to-layer="7744" to-port="1" />
		<edge from-layer="7744" from-port="2" to-layer="7746" to-port="0" />
		<edge from-layer="7745" from-port="0" to-layer="7746" to-port="1" />
		<edge from-layer="7746" from-port="2" to-layer="7747" to-port="0" />
		<edge from-layer="7747" from-port="2" to-layer="7752" to-port="0" />
		<edge from-layer="7748" from-port="0" to-layer="7752" to-port="1" />
		<edge from-layer="7749" from-port="0" to-layer="7752" to-port="2" />
		<edge from-layer="7750" from-port="0" to-layer="7752" to-port="3" />
		<edge from-layer="7751" from-port="0" to-layer="7752" to-port="4" />
		<edge from-layer="7752" from-port="5" to-layer="7757" to-port="0" />
		<edge from-layer="7753" from-port="0" to-layer="7754" to-port="0" />
		<edge from-layer="7754" from-port="1" to-layer="7756" to-port="0" />
		<edge from-layer="7755" from-port="0" to-layer="7756" to-port="1" />
		<edge from-layer="7756" from-port="2" to-layer="7757" to-port="1" />
		<edge from-layer="7757" from-port="2" to-layer="7759" to-port="0" />
		<edge from-layer="7758" from-port="0" to-layer="7759" to-port="1" />
		<edge from-layer="7759" from-port="2" to-layer="7760" to-port="0" />
		<edge from-layer="7760" from-port="2" to-layer="7761" to-port="0" />
		<edge from-layer="7760" from-port="2" to-layer="7787" to-port="1" />
		<edge from-layer="7761" from-port="2" to-layer="7766" to-port="0" />
		<edge from-layer="7762" from-port="0" to-layer="7766" to-port="1" />
		<edge from-layer="7763" from-port="0" to-layer="7766" to-port="2" />
		<edge from-layer="7764" from-port="0" to-layer="7766" to-port="3" />
		<edge from-layer="7765" from-port="0" to-layer="7766" to-port="4" />
		<edge from-layer="7766" from-port="5" to-layer="7771" to-port="0" />
		<edge from-layer="7767" from-port="0" to-layer="7768" to-port="0" />
		<edge from-layer="7768" from-port="1" to-layer="7770" to-port="0" />
		<edge from-layer="7769" from-port="0" to-layer="7770" to-port="1" />
		<edge from-layer="7770" from-port="2" to-layer="7771" to-port="1" />
		<edge from-layer="7771" from-port="2" to-layer="7773" to-port="0" />
		<edge from-layer="7772" from-port="0" to-layer="7773" to-port="1" />
		<edge from-layer="7773" from-port="2" to-layer="7774" to-port="0" />
		<edge from-layer="7774" from-port="2" to-layer="7779" to-port="0" />
		<edge from-layer="7775" from-port="0" to-layer="7779" to-port="1" />
		<edge from-layer="7776" from-port="0" to-layer="7779" to-port="2" />
		<edge from-layer="7777" from-port="0" to-layer="7779" to-port="3" />
		<edge from-layer="7778" from-port="0" to-layer="7779" to-port="4" />
		<edge from-layer="7779" from-port="5" to-layer="7784" to-port="0" />
		<edge from-layer="7780" from-port="0" to-layer="7781" to-port="0" />
		<edge from-layer="7781" from-port="1" to-layer="7783" to-port="0" />
		<edge from-layer="7782" from-port="0" to-layer="7783" to-port="1" />
		<edge from-layer="7783" from-port="2" to-layer="7784" to-port="1" />
		<edge from-layer="7784" from-port="2" to-layer="7786" to-port="0" />
		<edge from-layer="7785" from-port="0" to-layer="7786" to-port="1" />
		<edge from-layer="7786" from-port="2" to-layer="7787" to-port="0" />
		<edge from-layer="7787" from-port="2" to-layer="7788" to-port="1" />
		<edge from-layer="7788" from-port="2" to-layer="7864" to-port="0" />
		<edge from-layer="7789" from-port="0" to-layer="7790" to-port="0" />
		<edge from-layer="7790" from-port="1" to-layer="7792" to-port="0" />
		<edge from-layer="7791" from-port="0" to-layer="7792" to-port="1" />
		<edge from-layer="7792" from-port="2" to-layer="7793" to-port="1" />
		<edge from-layer="7793" from-port="2" to-layer="7795" to-port="0" />
		<edge from-layer="7794" from-port="0" to-layer="7795" to-port="1" />
		<edge from-layer="7795" from-port="2" to-layer="7796" to-port="0" />
		<edge from-layer="7796" from-port="2" to-layer="7801" to-port="0" />
		<edge from-layer="7797" from-port="0" to-layer="7801" to-port="1" />
		<edge from-layer="7798" from-port="0" to-layer="7801" to-port="2" />
		<edge from-layer="7799" from-port="0" to-layer="7801" to-port="3" />
		<edge from-layer="7800" from-port="0" to-layer="7801" to-port="4" />
		<edge from-layer="7801" from-port="5" to-layer="7806" to-port="0" />
		<edge from-layer="7802" from-port="0" to-layer="7803" to-port="0" />
		<edge from-layer="7803" from-port="1" to-layer="7805" to-port="0" />
		<edge from-layer="7804" from-port="0" to-layer="7805" to-port="1" />
		<edge from-layer="7805" from-port="2" to-layer="7806" to-port="1" />
		<edge from-layer="7806" from-port="2" to-layer="7808" to-port="0" />
		<edge from-layer="7807" from-port="0" to-layer="7808" to-port="1" />
		<edge from-layer="7808" from-port="2" to-layer="7809" to-port="0" />
		<edge from-layer="7809" from-port="2" to-layer="7836" to-port="1" />
		<edge from-layer="7809" from-port="2" to-layer="7810" to-port="0" />
		<edge from-layer="7810" from-port="2" to-layer="7815" to-port="0" />
		<edge from-layer="7811" from-port="0" to-layer="7815" to-port="1" />
		<edge from-layer="7812" from-port="0" to-layer="7815" to-port="2" />
		<edge from-layer="7813" from-port="0" to-layer="7815" to-port="3" />
		<edge from-layer="7814" from-port="0" to-layer="7815" to-port="4" />
		<edge from-layer="7815" from-port="5" to-layer="7820" to-port="0" />
		<edge from-layer="7816" from-port="0" to-layer="7817" to-port="0" />
		<edge from-layer="7817" from-port="1" to-layer="7819" to-port="0" />
		<edge from-layer="7818" from-port="0" to-layer="7819" to-port="1" />
		<edge from-layer="7819" from-port="2" to-layer="7820" to-port="1" />
		<edge from-layer="7820" from-port="2" to-layer="7822" to-port="0" />
		<edge from-layer="7821" from-port="0" to-layer="7822" to-port="1" />
		<edge from-layer="7822" from-port="2" to-layer="7823" to-port="0" />
		<edge from-layer="7823" from-port="2" to-layer="7828" to-port="0" />
		<edge from-layer="7824" from-port="0" to-layer="7828" to-port="1" />
		<edge from-layer="7825" from-port="0" to-layer="7828" to-port="2" />
		<edge from-layer="7826" from-port="0" to-layer="7828" to-port="3" />
		<edge from-layer="7827" from-port="0" to-layer="7828" to-port="4" />
		<edge from-layer="7828" from-port="5" to-layer="7833" to-port="0" />
		<edge from-layer="7829" from-port="0" to-layer="7830" to-port="0" />
		<edge from-layer="7830" from-port="1" to-layer="7832" to-port="0" />
		<edge from-layer="7831" from-port="0" to-layer="7832" to-port="1" />
		<edge from-layer="7832" from-port="2" to-layer="7833" to-port="1" />
		<edge from-layer="7833" from-port="2" to-layer="7835" to-port="0" />
		<edge from-layer="7834" from-port="0" to-layer="7835" to-port="1" />
		<edge from-layer="7835" from-port="2" to-layer="7836" to-port="0" />
		<edge from-layer="7836" from-port="2" to-layer="7863" to-port="1" />
		<edge from-layer="7836" from-port="2" to-layer="7837" to-port="0" />
		<edge from-layer="7837" from-port="2" to-layer="7842" to-port="0" />
		<edge from-layer="7838" from-port="0" to-layer="7842" to-port="1" />
		<edge from-layer="7839" from-port="0" to-layer="7842" to-port="2" />
		<edge from-layer="7840" from-port="0" to-layer="7842" to-port="3" />
		<edge from-layer="7841" from-port="0" to-layer="7842" to-port="4" />
		<edge from-layer="7842" from-port="5" to-layer="7847" to-port="0" />
		<edge from-layer="7843" from-port="0" to-layer="7844" to-port="0" />
		<edge from-layer="7844" from-port="1" to-layer="7846" to-port="0" />
		<edge from-layer="7845" from-port="0" to-layer="7846" to-port="1" />
		<edge from-layer="7846" from-port="2" to-layer="7847" to-port="1" />
		<edge from-layer="7847" from-port="2" to-layer="7849" to-port="0" />
		<edge from-layer="7848" from-port="0" to-layer="7849" to-port="1" />
		<edge from-layer="7849" from-port="2" to-layer="7850" to-port="0" />
		<edge from-layer="7850" from-port="2" to-layer="7855" to-port="0" />
		<edge from-layer="7851" from-port="0" to-layer="7855" to-port="1" />
		<edge from-layer="7852" from-port="0" to-layer="7855" to-port="2" />
		<edge from-layer="7853" from-port="0" to-layer="7855" to-port="3" />
		<edge from-layer="7854" from-port="0" to-layer="7855" to-port="4" />
		<edge from-layer="7855" from-port="5" to-layer="7860" to-port="0" />
		<edge from-layer="7856" from-port="0" to-layer="7857" to-port="0" />
		<edge from-layer="7857" from-port="1" to-layer="7859" to-port="0" />
		<edge from-layer="7858" from-port="0" to-layer="7859" to-port="1" />
		<edge from-layer="7859" from-port="2" to-layer="7860" to-port="1" />
		<edge from-layer="7860" from-port="2" to-layer="7862" to-port="0" />
		<edge from-layer="7861" from-port="0" to-layer="7862" to-port="1" />
		<edge from-layer="7862" from-port="2" to-layer="7863" to-port="0" />
		<edge from-layer="7863" from-port="2" to-layer="7864" to-port="1" />
		<edge from-layer="7864" from-port="2" to-layer="7866" to-port="0" />
		<edge from-layer="7865" from-port="0" to-layer="7866" to-port="1" />
		<edge from-layer="7866" from-port="2" to-layer="7867" to-port="0" />
		<edge from-layer="7867" from-port="2" to-layer="7872" to-port="0" />
		<edge from-layer="7868" from-port="0" to-layer="7872" to-port="1" />
		<edge from-layer="7869" from-port="0" to-layer="7872" to-port="2" />
		<edge from-layer="7870" from-port="0" to-layer="7872" to-port="3" />
		<edge from-layer="7871" from-port="0" to-layer="7872" to-port="4" />
		<edge from-layer="7872" from-port="5" to-layer="7877" to-port="0" />
		<edge from-layer="7873" from-port="0" to-layer="7874" to-port="0" />
		<edge from-layer="7874" from-port="1" to-layer="7876" to-port="0" />
		<edge from-layer="7875" from-port="0" to-layer="7876" to-port="1" />
		<edge from-layer="7876" from-port="2" to-layer="7877" to-port="1" />
		<edge from-layer="7877" from-port="2" to-layer="7879" to-port="0" />
		<edge from-layer="7878" from-port="0" to-layer="7879" to-port="1" />
		<edge from-layer="7879" from-port="2" to-layer="7906" to-port="1" />
		<edge from-layer="7879" from-port="2" to-layer="7981" to-port="1" />
		<edge from-layer="7879" from-port="2" to-layer="7880" to-port="0" />
		<edge from-layer="7879" from-port="2" to-layer="8057" to-port="1" />
		<edge from-layer="7880" from-port="2" to-layer="7885" to-port="0" />
		<edge from-layer="7881" from-port="0" to-layer="7885" to-port="1" />
		<edge from-layer="7882" from-port="0" to-layer="7885" to-port="2" />
		<edge from-layer="7883" from-port="0" to-layer="7885" to-port="3" />
		<edge from-layer="7884" from-port="0" to-layer="7885" to-port="4" />
		<edge from-layer="7885" from-port="5" to-layer="7890" to-port="0" />
		<edge from-layer="7885" from-port="5" to-layer="7965" to-port="0" />
		<edge from-layer="7885" from-port="5" to-layer="8041" to-port="0" />
		<edge from-layer="7886" from-port="0" to-layer="7887" to-port="0" />
		<edge from-layer="7887" from-port="1" to-layer="7889" to-port="0" />
		<edge from-layer="7888" from-port="0" to-layer="7889" to-port="1" />
		<edge from-layer="7889" from-port="2" to-layer="7890" to-port="1" />
		<edge from-layer="7890" from-port="2" to-layer="7892" to-port="0" />
		<edge from-layer="7891" from-port="0" to-layer="7892" to-port="1" />
		<edge from-layer="7892" from-port="2" to-layer="7893" to-port="0" />
		<edge from-layer="7893" from-port="2" to-layer="7898" to-port="0" />
		<edge from-layer="7894" from-port="0" to-layer="7898" to-port="1" />
		<edge from-layer="7895" from-port="0" to-layer="7898" to-port="2" />
		<edge from-layer="7896" from-port="0" to-layer="7898" to-port="3" />
		<edge from-layer="7897" from-port="0" to-layer="7898" to-port="4" />
		<edge from-layer="7898" from-port="5" to-layer="7903" to-port="0" />
		<edge from-layer="7899" from-port="0" to-layer="7900" to-port="0" />
		<edge from-layer="7900" from-port="1" to-layer="7902" to-port="0" />
		<edge from-layer="7901" from-port="0" to-layer="7902" to-port="1" />
		<edge from-layer="7902" from-port="2" to-layer="7903" to-port="1" />
		<edge from-layer="7903" from-port="2" to-layer="7905" to-port="0" />
		<edge from-layer="7904" from-port="0" to-layer="7905" to-port="1" />
		<edge from-layer="7905" from-port="2" to-layer="7906" to-port="0" />
		<edge from-layer="7906" from-port="2" to-layer="7907" to-port="0" />
		<edge from-layer="7906" from-port="2" to-layer="7933" to-port="1" />
		<edge from-layer="7907" from-port="2" to-layer="7912" to-port="0" />
		<edge from-layer="7908" from-port="0" to-layer="7912" to-port="1" />
		<edge from-layer="7909" from-port="0" to-layer="7912" to-port="2" />
		<edge from-layer="7910" from-port="0" to-layer="7912" to-port="3" />
		<edge from-layer="7911" from-port="0" to-layer="7912" to-port="4" />
		<edge from-layer="7912" from-port="5" to-layer="7917" to-port="0" />
		<edge from-layer="7913" from-port="0" to-layer="7914" to-port="0" />
		<edge from-layer="7914" from-port="1" to-layer="7916" to-port="0" />
		<edge from-layer="7915" from-port="0" to-layer="7916" to-port="1" />
		<edge from-layer="7916" from-port="2" to-layer="7917" to-port="1" />
		<edge from-layer="7917" from-port="2" to-layer="7919" to-port="0" />
		<edge from-layer="7918" from-port="0" to-layer="7919" to-port="1" />
		<edge from-layer="7919" from-port="2" to-layer="7920" to-port="0" />
		<edge from-layer="7920" from-port="2" to-layer="7925" to-port="0" />
		<edge from-layer="7921" from-port="0" to-layer="7925" to-port="1" />
		<edge from-layer="7922" from-port="0" to-layer="7925" to-port="2" />
		<edge from-layer="7923" from-port="0" to-layer="7925" to-port="3" />
		<edge from-layer="7924" from-port="0" to-layer="7925" to-port="4" />
		<edge from-layer="7925" from-port="5" to-layer="7930" to-port="0" />
		<edge from-layer="7926" from-port="0" to-layer="7927" to-port="0" />
		<edge from-layer="7927" from-port="1" to-layer="7929" to-port="0" />
		<edge from-layer="7928" from-port="0" to-layer="7929" to-port="1" />
		<edge from-layer="7929" from-port="2" to-layer="7930" to-port="1" />
		<edge from-layer="7930" from-port="2" to-layer="7932" to-port="0" />
		<edge from-layer="7931" from-port="0" to-layer="7932" to-port="1" />
		<edge from-layer="7932" from-port="2" to-layer="7933" to-port="0" />
		<edge from-layer="7933" from-port="2" to-layer="7960" to-port="1" />
		<edge from-layer="7933" from-port="2" to-layer="7934" to-port="0" />
		<edge from-layer="7934" from-port="2" to-layer="7939" to-port="0" />
		<edge from-layer="7935" from-port="0" to-layer="7939" to-port="1" />
		<edge from-layer="7936" from-port="0" to-layer="7939" to-port="2" />
		<edge from-layer="7937" from-port="0" to-layer="7939" to-port="3" />
		<edge from-layer="7938" from-port="0" to-layer="7939" to-port="4" />
		<edge from-layer="7939" from-port="5" to-layer="7944" to-port="0" />
		<edge from-layer="7940" from-port="0" to-layer="7941" to-port="0" />
		<edge from-layer="7941" from-port="1" to-layer="7943" to-port="0" />
		<edge from-layer="7942" from-port="0" to-layer="7943" to-port="1" />
		<edge from-layer="7943" from-port="2" to-layer="7944" to-port="1" />
		<edge from-layer="7944" from-port="2" to-layer="7946" to-port="0" />
		<edge from-layer="7945" from-port="0" to-layer="7946" to-port="1" />
		<edge from-layer="7946" from-port="2" to-layer="7947" to-port="0" />
		<edge from-layer="7947" from-port="2" to-layer="7952" to-port="0" />
		<edge from-layer="7948" from-port="0" to-layer="7952" to-port="1" />
		<edge from-layer="7949" from-port="0" to-layer="7952" to-port="2" />
		<edge from-layer="7950" from-port="0" to-layer="7952" to-port="3" />
		<edge from-layer="7951" from-port="0" to-layer="7952" to-port="4" />
		<edge from-layer="7952" from-port="5" to-layer="7957" to-port="0" />
		<edge from-layer="7953" from-port="0" to-layer="7954" to-port="0" />
		<edge from-layer="7954" from-port="1" to-layer="7956" to-port="0" />
		<edge from-layer="7955" from-port="0" to-layer="7956" to-port="1" />
		<edge from-layer="7956" from-port="2" to-layer="7957" to-port="1" />
		<edge from-layer="7957" from-port="2" to-layer="7959" to-port="0" />
		<edge from-layer="7958" from-port="0" to-layer="7959" to-port="1" />
		<edge from-layer="7959" from-port="2" to-layer="7960" to-port="0" />
		<edge from-layer="7960" from-port="2" to-layer="8036" to-port="0" />
		<edge from-layer="7961" from-port="0" to-layer="7962" to-port="0" />
		<edge from-layer="7962" from-port="1" to-layer="7964" to-port="0" />
		<edge from-layer="7963" from-port="0" to-layer="7964" to-port="1" />
		<edge from-layer="7964" from-port="2" to-layer="7965" to-port="1" />
		<edge from-layer="7965" from-port="2" to-layer="7967" to-port="0" />
		<edge from-layer="7966" from-port="0" to-layer="7967" to-port="1" />
		<edge from-layer="7967" from-port="2" to-layer="7968" to-port="0" />
		<edge from-layer="7968" from-port="2" to-layer="7973" to-port="0" />
		<edge from-layer="7969" from-port="0" to-layer="7973" to-port="1" />
		<edge from-layer="7970" from-port="0" to-layer="7973" to-port="2" />
		<edge from-layer="7971" from-port="0" to-layer="7973" to-port="3" />
		<edge from-layer="7972" from-port="0" to-layer="7973" to-port="4" />
		<edge from-layer="7973" from-port="5" to-layer="7978" to-port="0" />
		<edge from-layer="7974" from-port="0" to-layer="7975" to-port="0" />
		<edge from-layer="7975" from-port="1" to-layer="7977" to-port="0" />
		<edge from-layer="7976" from-port="0" to-layer="7977" to-port="1" />
		<edge from-layer="7977" from-port="2" to-layer="7978" to-port="1" />
		<edge from-layer="7978" from-port="2" to-layer="7980" to-port="0" />
		<edge from-layer="7979" from-port="0" to-layer="7980" to-port="1" />
		<edge from-layer="7980" from-port="2" to-layer="7981" to-port="0" />
		<edge from-layer="7981" from-port="2" to-layer="7982" to-port="0" />
		<edge from-layer="7981" from-port="2" to-layer="8008" to-port="1" />
		<edge from-layer="7982" from-port="2" to-layer="7987" to-port="0" />
		<edge from-layer="7983" from-port="0" to-layer="7987" to-port="1" />
		<edge from-layer="7984" from-port="0" to-layer="7987" to-port="2" />
		<edge from-layer="7985" from-port="0" to-layer="7987" to-port="3" />
		<edge from-layer="7986" from-port="0" to-layer="7987" to-port="4" />
		<edge from-layer="7987" from-port="5" to-layer="7992" to-port="0" />
		<edge from-layer="7988" from-port="0" to-layer="7989" to-port="0" />
		<edge from-layer="7989" from-port="1" to-layer="7991" to-port="0" />
		<edge from-layer="7990" from-port="0" to-layer="7991" to-port="1" />
		<edge from-layer="7991" from-port="2" to-layer="7992" to-port="1" />
		<edge from-layer="7992" from-port="2" to-layer="7994" to-port="0" />
		<edge from-layer="7993" from-port="0" to-layer="7994" to-port="1" />
		<edge from-layer="7994" from-port="2" to-layer="7995" to-port="0" />
		<edge from-layer="7995" from-port="2" to-layer="8000" to-port="0" />
		<edge from-layer="7996" from-port="0" to-layer="8000" to-port="1" />
		<edge from-layer="7997" from-port="0" to-layer="8000" to-port="2" />
		<edge from-layer="7998" from-port="0" to-layer="8000" to-port="3" />
		<edge from-layer="7999" from-port="0" to-layer="8000" to-port="4" />
		<edge from-layer="8000" from-port="5" to-layer="8005" to-port="0" />
		<edge from-layer="8001" from-port="0" to-layer="8002" to-port="0" />
		<edge from-layer="8002" from-port="1" to-layer="8004" to-port="0" />
		<edge from-layer="8003" from-port="0" to-layer="8004" to-port="1" />
		<edge from-layer="8004" from-port="2" to-layer="8005" to-port="1" />
		<edge from-layer="8005" from-port="2" to-layer="8007" to-port="0" />
		<edge from-layer="8006" from-port="0" to-layer="8007" to-port="1" />
		<edge from-layer="8007" from-port="2" to-layer="8008" to-port="0" />
		<edge from-layer="8008" from-port="2" to-layer="8035" to-port="1" />
		<edge from-layer="8008" from-port="2" to-layer="8009" to-port="0" />
		<edge from-layer="8009" from-port="2" to-layer="8014" to-port="0" />
		<edge from-layer="8010" from-port="0" to-layer="8014" to-port="1" />
		<edge from-layer="8011" from-port="0" to-layer="8014" to-port="2" />
		<edge from-layer="8012" from-port="0" to-layer="8014" to-port="3" />
		<edge from-layer="8013" from-port="0" to-layer="8014" to-port="4" />
		<edge from-layer="8014" from-port="5" to-layer="8019" to-port="0" />
		<edge from-layer="8015" from-port="0" to-layer="8016" to-port="0" />
		<edge from-layer="8016" from-port="1" to-layer="8018" to-port="0" />
		<edge from-layer="8017" from-port="0" to-layer="8018" to-port="1" />
		<edge from-layer="8018" from-port="2" to-layer="8019" to-port="1" />
		<edge from-layer="8019" from-port="2" to-layer="8021" to-port="0" />
		<edge from-layer="8020" from-port="0" to-layer="8021" to-port="1" />
		<edge from-layer="8021" from-port="2" to-layer="8022" to-port="0" />
		<edge from-layer="8022" from-port="2" to-layer="8027" to-port="0" />
		<edge from-layer="8023" from-port="0" to-layer="8027" to-port="1" />
		<edge from-layer="8024" from-port="0" to-layer="8027" to-port="2" />
		<edge from-layer="8025" from-port="0" to-layer="8027" to-port="3" />
		<edge from-layer="8026" from-port="0" to-layer="8027" to-port="4" />
		<edge from-layer="8027" from-port="5" to-layer="8032" to-port="0" />
		<edge from-layer="8028" from-port="0" to-layer="8029" to-port="0" />
		<edge from-layer="8029" from-port="1" to-layer="8031" to-port="0" />
		<edge from-layer="8030" from-port="0" to-layer="8031" to-port="1" />
		<edge from-layer="8031" from-port="2" to-layer="8032" to-port="1" />
		<edge from-layer="8032" from-port="2" to-layer="8034" to-port="0" />
		<edge from-layer="8033" from-port="0" to-layer="8034" to-port="1" />
		<edge from-layer="8034" from-port="2" to-layer="8035" to-port="0" />
		<edge from-layer="8035" from-port="2" to-layer="8036" to-port="1" />
		<edge from-layer="8036" from-port="2" to-layer="8112" to-port="0" />
		<edge from-layer="8037" from-port="0" to-layer="8038" to-port="0" />
		<edge from-layer="8038" from-port="1" to-layer="8040" to-port="0" />
		<edge from-layer="8039" from-port="0" to-layer="8040" to-port="1" />
		<edge from-layer="8040" from-port="2" to-layer="8041" to-port="1" />
		<edge from-layer="8041" from-port="2" to-layer="8043" to-port="0" />
		<edge from-layer="8042" from-port="0" to-layer="8043" to-port="1" />
		<edge from-layer="8043" from-port="2" to-layer="8044" to-port="0" />
		<edge from-layer="8044" from-port="2" to-layer="8049" to-port="0" />
		<edge from-layer="8045" from-port="0" to-layer="8049" to-port="1" />
		<edge from-layer="8046" from-port="0" to-layer="8049" to-port="2" />
		<edge from-layer="8047" from-port="0" to-layer="8049" to-port="3" />
		<edge from-layer="8048" from-port="0" to-layer="8049" to-port="4" />
		<edge from-layer="8049" from-port="5" to-layer="8054" to-port="0" />
		<edge from-layer="8050" from-port="0" to-layer="8051" to-port="0" />
		<edge from-layer="8051" from-port="1" to-layer="8053" to-port="0" />
		<edge from-layer="8052" from-port="0" to-layer="8053" to-port="1" />
		<edge from-layer="8053" from-port="2" to-layer="8054" to-port="1" />
		<edge from-layer="8054" from-port="2" to-layer="8056" to-port="0" />
		<edge from-layer="8055" from-port="0" to-layer="8056" to-port="1" />
		<edge from-layer="8056" from-port="2" to-layer="8057" to-port="0" />
		<edge from-layer="8057" from-port="2" to-layer="8058" to-port="0" />
		<edge from-layer="8057" from-port="2" to-layer="8084" to-port="1" />
		<edge from-layer="8058" from-port="2" to-layer="8063" to-port="0" />
		<edge from-layer="8059" from-port="0" to-layer="8063" to-port="1" />
		<edge from-layer="8060" from-port="0" to-layer="8063" to-port="2" />
		<edge from-layer="8061" from-port="0" to-layer="8063" to-port="3" />
		<edge from-layer="8062" from-port="0" to-layer="8063" to-port="4" />
		<edge from-layer="8063" from-port="5" to-layer="8068" to-port="0" />
		<edge from-layer="8064" from-port="0" to-layer="8065" to-port="0" />
		<edge from-layer="8065" from-port="1" to-layer="8067" to-port="0" />
		<edge from-layer="8066" from-port="0" to-layer="8067" to-port="1" />
		<edge from-layer="8067" from-port="2" to-layer="8068" to-port="1" />
		<edge from-layer="8068" from-port="2" to-layer="8070" to-port="0" />
		<edge from-layer="8069" from-port="0" to-layer="8070" to-port="1" />
		<edge from-layer="8070" from-port="2" to-layer="8071" to-port="0" />
		<edge from-layer="8071" from-port="2" to-layer="8076" to-port="0" />
		<edge from-layer="8072" from-port="0" to-layer="8076" to-port="1" />
		<edge from-layer="8073" from-port="0" to-layer="8076" to-port="2" />
		<edge from-layer="8074" from-port="0" to-layer="8076" to-port="3" />
		<edge from-layer="8075" from-port="0" to-layer="8076" to-port="4" />
		<edge from-layer="8076" from-port="5" to-layer="8081" to-port="0" />
		<edge from-layer="8077" from-port="0" to-layer="8078" to-port="0" />
		<edge from-layer="8078" from-port="1" to-layer="8080" to-port="0" />
		<edge from-layer="8079" from-port="0" to-layer="8080" to-port="1" />
		<edge from-layer="8080" from-port="2" to-layer="8081" to-port="1" />
		<edge from-layer="8081" from-port="2" to-layer="8083" to-port="0" />
		<edge from-layer="8082" from-port="0" to-layer="8083" to-port="1" />
		<edge from-layer="8083" from-port="2" to-layer="8084" to-port="0" />
		<edge from-layer="8084" from-port="2" to-layer="8085" to-port="0" />
		<edge from-layer="8084" from-port="2" to-layer="8111" to-port="1" />
		<edge from-layer="8085" from-port="2" to-layer="8090" to-port="0" />
		<edge from-layer="8086" from-port="0" to-layer="8090" to-port="1" />
		<edge from-layer="8087" from-port="0" to-layer="8090" to-port="2" />
		<edge from-layer="8088" from-port="0" to-layer="8090" to-port="3" />
		<edge from-layer="8089" from-port="0" to-layer="8090" to-port="4" />
		<edge from-layer="8090" from-port="5" to-layer="8095" to-port="0" />
		<edge from-layer="8091" from-port="0" to-layer="8092" to-port="0" />
		<edge from-layer="8092" from-port="1" to-layer="8094" to-port="0" />
		<edge from-layer="8093" from-port="0" to-layer="8094" to-port="1" />
		<edge from-layer="8094" from-port="2" to-layer="8095" to-port="1" />
		<edge from-layer="8095" from-port="2" to-layer="8097" to-port="0" />
		<edge from-layer="8096" from-port="0" to-layer="8097" to-port="1" />
		<edge from-layer="8097" from-port="2" to-layer="8098" to-port="0" />
		<edge from-layer="8098" from-port="2" to-layer="8103" to-port="0" />
		<edge from-layer="8099" from-port="0" to-layer="8103" to-port="1" />
		<edge from-layer="8100" from-port="0" to-layer="8103" to-port="2" />
		<edge from-layer="8101" from-port="0" to-layer="8103" to-port="3" />
		<edge from-layer="8102" from-port="0" to-layer="8103" to-port="4" />
		<edge from-layer="8103" from-port="5" to-layer="8108" to-port="0" />
		<edge from-layer="8104" from-port="0" to-layer="8105" to-port="0" />
		<edge from-layer="8105" from-port="1" to-layer="8107" to-port="0" />
		<edge from-layer="8106" from-port="0" to-layer="8107" to-port="1" />
		<edge from-layer="8107" from-port="2" to-layer="8108" to-port="1" />
		<edge from-layer="8108" from-port="2" to-layer="8110" to-port="0" />
		<edge from-layer="8109" from-port="0" to-layer="8110" to-port="1" />
		<edge from-layer="8110" from-port="2" to-layer="8111" to-port="0" />
		<edge from-layer="8111" from-port="2" to-layer="8112" to-port="1" />
		<edge from-layer="8112" from-port="2" to-layer="8114" to-port="0" />
		<edge from-layer="8113" from-port="0" to-layer="8114" to-port="1" />
		<edge from-layer="8114" from-port="2" to-layer="8116" to-port="0" />
		<edge from-layer="8115" from-port="0" to-layer="8116" to-port="1" />
		<edge from-layer="8116" from-port="2" to-layer="8121" to-port="0" />
		<edge from-layer="8117" from-port="0" to-layer="8121" to-port="1" />
		<edge from-layer="8118" from-port="0" to-layer="8121" to-port="2" />
		<edge from-layer="8119" from-port="0" to-layer="8121" to-port="3" />
		<edge from-layer="8120" from-port="0" to-layer="8121" to-port="4" />
		<edge from-layer="8121" from-port="5" to-layer="8126" to-port="0" />
		<edge from-layer="8122" from-port="0" to-layer="8123" to-port="0" />
		<edge from-layer="8123" from-port="1" to-layer="8125" to-port="0" />
		<edge from-layer="8124" from-port="0" to-layer="8125" to-port="1" />
		<edge from-layer="8125" from-port="2" to-layer="8126" to-port="1" />
		<edge from-layer="8126" from-port="2" to-layer="8127" to-port="0" />
		<edge from-layer="8127" from-port="1" to-layer="8128" to-port="0" />
	</edges>
	<rt_info>
		<Runtime_version value="2024.3.0-16041-1e3b88e4e3f-releases/2024/3" />
		<conversion_parameters>
			<framework value="pytorch" />
			<is_python_object value="True" />
		</conversion_parameters>
		<nncf>
			<friendly_names_were_updated value="True" />
			<quantization>
				<advanced_parameters value="{'overflow_fix': None, 'quantize_outputs': False, 'inplace_statistics': True, 'disable_channel_alignment': True, 'disable_bias_correction': False, 'batchwise_statistics': None, 'activations_quantization_params': None, 'weights_quantization_params': None, 'activations_range_estimator_params': {'min': {'statistics_type': None, 'aggregator_type': None, 'clipping_value': None, 'quantile_outlier_prob': 0.0001}, 'max': {'statistics_type': None, 'aggregator_type': None, 'clipping_value': None, 'quantile_outlier_prob': 0.0001}}, 'weights_range_estimator_params': {'min': {'statistics_type': None, 'aggregator_type': None, 'clipping_value': None, 'quantile_outlier_prob': 0.0001}, 'max': {'statistics_type': None, 'aggregator_type': None, 'clipping_value': None, 'quantile_outlier_prob': 0.0001}}, 'bias_correction_params': {'apply_for_all_nodes': False, 'threshold': None}, 'smooth_quant_alphas': {'convolution': -1, 'matmul': 0.6}, 'smooth_quant_alpha': 0.6, 'backend_params': {}}" />
				<fast_bias_correction value="True" />
				<ignored_scope value="None" />
				<model_type value="transformer" />
				<preset value="None" />
				<subset_size value="1" />
				<target_device value="ANY" />
			</quantization>
		</nncf>
	</rt_info>
</net>
